DETECCION OBJETOS/TFLITE/transito_1_1-openmv-v2/trained.tflite (tflite, 56792 bytes, 21 tensors)

model_1/logits/Conv2D i1 [6, 1, 1, 32]
0	0x1b	27
1	0x27	39
2	0xd9	-39
3	0xcf	-49
4	0xde	-34
5	0xea	-22
6	0xfc	-4
7	0x22	34
8	0xec	-20
9	0x10	16
10	0x05	5
11	0x31	49
12	0xaa	-86
13	0xcc	-52
14	0x67	103
15	0xf4	-12
16	0xff	-1
17	0xed	-19
18	0xf5	-11
19	0xaa	-86
20	0x01	1
21	0x3c	60
22	0x07	7
23	0xe7	-25
24	0xb7	-73
25	0xda	-38
26	0xd0	-48
27	0xe9	-23
28	0x7f	127
29	0x06	6
30	0x9f	-97
31	0xc3	-61
32	0x40	64
33	0xaf	-81
34	0xfa	-6
35	0xf2	-14
36	0x61	97
37	0xfe	-2
38	0xca	-54
39	0x25	37
40	0x50	80
41	0xe7	-25
42	0xa4	-92
43	0x36	54
44	0x16	22
45	0xfe	-2
46	0x81	-127
47	0x07	7
48	0x02	2
49	0x01	1
50	0xbc	-68
51	0xb0	-80
52	0xf4	-12
53	0x39	57
54	0xf3	-13
55	0xa1	-95
56	0x40	64
57	0x1a	26
58	0x6f	111
59	0x01	1
60	0xb2	-78
61	0x19	25
62	0xa7	-89
63	0x50	80
64	0xcc	-52
65	0xa4	-92
66	0x48	72
67	0xce	-50
68	0x5c	92
69	0x7f	127
70	0x89	-119
71	0x52	82
72	0xb0	-80
73	0x06	6
74	0x48	72
75	0xc9	-55
76	0x5b	91
77	0xf1	-15
78	0xeb	-21
79	0x5f	95
80	0x20	32
81	0x03	3
82	0x94	-108
83	0xd8	-40
84	0x4c	76
85	0x61	97
86	0x9f	-97
87	0x02	2
88	0x89	-119
89	0x50	80
90	0xa0	-96
91	0xe5	-27
92	0x14	20
93	0x2f	47
94	0xcf	-49
95	0x99	-103
96	0x4a	74
97	0xb6	-74
98	0x10	16
99	0x1e	30
100	0x23	35
101	0xd5	-43
102	0x9c	-100
103	0x20	32
104	0x47	71
105	0x59	89
106	0xeb	-21
107	0x8c	-116
108	0x6b	107
109	0x09	9
110	0xde	-34
111	0xed	-19
112	0x59	89
113	0x3f	63
114	0x49	73
115	0xa3	-93
116	0x2a	42
117	0xc8	-56
118	0x81	-127
119	0x47	71
120	0xd4	-44
121	0x7d	125
122	0xa1	-95
123	0x11	17
124	0xbe	-66
125	0xec	-20
126	0xed	-19
127	0x5b	91
128	0xe7	-25
129	0x17	23
130	0x7f	127
131	0xfc	-4
132	0xd8	-40
133	0xbd	-67
134	0x66	102
135	0xd5	-43
136	0xd6	-42
137	0x9d	-99
138	0x19	25
139	0x25	37
140	0x1b	27
141	0xf3	-13
142	0x8c	-116
143	0xe0	-32
144	0x12	18
145	0x5c	92
146	0x45	69
147	0x13	19
148	0x03	3
149	0x7b	123
150	0x56	86
151	0xe5	-27
152	0x2a	42
153	0xf3	-13
154	0x0b	11
155	0x30	48
156	0xb8	-72
157	0xb9	-71
158	0x2b	43
159	0x19	25
160	0x54	84
161	0x51	81
162	0xe0	-32
163	0x77	119
164	0x2f	47
165	0x04	4
166	0xb0	-80
167	0x77	119
168	0xca	-54
169	0x95	-107
170	0x6d	109
171	0x93	-109
172	0xd6	-42
173	0x8c	-116
174	0x95	-107
175	0xdc	-36
176	0xb5	-75
177	0xb1	-79
178	0xde	-34
179	0x7f	127
180	0xf0	-16
181	0x14	20
182	0x0f	15
183	0x1d	29
184	0x72	114
185	0xfa	-6
186	0xea	-22
187	0x59	89
188	0xea	-22
189	0x42	66
190	0xb5	-75
191	0xeb	-21

model_1/head/Conv2D i1 [32, 1, 1, 96]
0	0xe9	-23
1	0xd3	-45
2	0x57	87
3	0x0d	13
4	0x3e	62
5	0x0a	10
6	0xba	-70
7	0xab	-85
8	0x44	68
9	0xaf	-81
10	0xa7	-89
11	0x12	18
12	0x2c	44
13	0x18	24
14	0xea	-22
15	0x34	52
16	0xd1	-47
17	0xee	-18
18	0xee	-18
19	0xd6	-42
20	0xc9	-55
21	0xa6	-90
22	0x03	3
23	0x6b	107
24	0x90	-112
25	0x10	16
26	0x51	81
27	0xdf	-33
28	0x77	119
29	0x01	1
30	0xee	-18
31	0xbd	-67
32	0x51	81
33	0xd1	-47
34	0xaf	-81
35	0x27	39
36	0x9a	-102
37	0xc5	-59
38	0xba	-70
39	0x27	39
40	0x50	80
41	0xaf	-81
42	0xb0	-80
43	0x60	96
44	0x3f	63
45	0xac	-84
46	0x72	114
47	0xfe	-2
48	0x1b	27
49	0xe9	-23
50	0xe7	-25
51	0x63	99
52	0xd5	-43
53	0xdf	-33
54	0xb9	-71
55	0x67	103
56	0x25	37
57	0x46	70
58	0x70	112
59	0x97	-105
60	0xce	-50
61	0x59	89
62	0xd3	-45
63	0x26	38
64	0x05	5
65	0x1a	26
66	0x47	71
67	0x64	100
68	0x41	65
69	0x61	97
70	0x4c	76
71	0x94	-108
72	0x6c	108
73	0xa2	-94
74	0x2f	47
75	0x4d	77
76	0xa6	-90
77	0x05	5
78	0xd3	-45
79	0x21	33
80	0x3c	60
81	0x1f	31
82	0x63	99
83	0xfc	-4
84	0xd3	-45
85	0xdd	-35
86	0xb8	-72
87	0x6a	106
88	0x23	35
89	0x7f	127
90	0x0c	12
91	0x84	-124
92	0x11	17
93	0x38	56
94	0x33	51
95	0xfd	-3
96	0xd8	-40
97	0x30	48
98	0xd0	-48
99	0x08	8
100	0xdd	-35
101	0x2c	44
102	0x2a	42
103	0x1b	27
104	0x54	84
105	0xae	-82
106	0xae	-82
107	0x71	113
108	0x36	54
109	0xed	-19
110	0x26	38
111	0x4b	75
112	0x65	101
113	0xe5	-27
114	0x42	66
115	0x7b	123
116	0xd7	-41
117	0x04	4
118	0x28	40
119	0x1e	30
120	0x32	50
121	0x1c	28
122	0xe4	-28
123	0x75	117
124	0x16	22
125	0x03	3
126	0x5f	95
127	0xcc	-52
128	0x39	57
129	0x65	101
130	0xfe	-2
131	0x31	49
132	0x38	56
133	0x40	64
134	0x01	1
135	0xd0	-48
136	0xd3	-45
137	0x09	9
138	0x01	1
139	0xb2	-78
140	0xf8	-8
141	0x2e	46
142	0xf0	-16
143	0xe0	-32
144	0xf4	-12
145	0xcc	-52
146	0x78	120
147	0x31	49
148	0x18	24
149	0x57	87
150	0xc8	-56
151	0xde	-34
152	0x16	22
153	0x60	96
154	0x34	52
155	0x4c	76
156	0xcf	-49
157	0x7f	127
158	0xb8	-72
159	0xca	-54
160	0xd2	-46
161	0x28	40
162	0x4e	78
163	0x2e	46
164	0x72	114
165	0x2d	45
166	0xf9	-7
167	0x09	9
168	0xa4	-92
169	0x62	98
170	0xd4	-44
171	0x3a	58
172	0x4a	74
173	0xdb	-37
174	0xe6	-26
175	0x50	80
176	0xc2	-62
177	0x61	97
178	0xd1	-47
179	0x9c	-100
180	0x24	36
181	0x6a	106
182	0xcf	-49
183	0xcd	-51
184	0x48	72
185	0x55	85
186	0x67	103
187	0x15	21
188	0x56	86
189	0x4b	75
190	0x29	41
191	0x0c	12
192	0x3c	60
193	0x2a	42
194	0xb2	-78
195	0x5d	93
196	0xf3	-13
197	0xd8	-40
198	0x5c	92
199	0x63	99
200	0xac	-84
201	0x49	73
202	0xe6	-26
203	0x67	103
204	0x50	80
205	0xfa	-6
206	0x58	88
207	0x8f	-113
208	0xcb	-53
209	0xef	-17
210	0x2a	42
211	0x53	83
212	0xab	-85
213	0xf1	-15
214	0x65	101
215	0x19	25
216	0xd7	-41
217	0x62	98
218	0x6b	107
219	0x03	3
220	0xce	-50
221	0x5f	95
222	0x55	85
223	0x70	112
224	0xb9	-71
225	0xf8	-8
226	0x9a	-102
227	0x84	-124
228	0x93	-109
229	0x6a	106
230	0x65	101
231	0xf1	-15
232	0x9b	-101
233	0xbf	-65
234	0x1d	29
235	0xfa	-6
236	0xbf	-65
237	0x7f	127
238	0xf7	-9
239	0xbd	-67
240	0x68	104
241	0x4d	77
242	0x63	99
243	0xb7	-73
244	0xd2	-46
245	0x4e	78
246	0x23	35
247	0x27	39
248	0xb3	-77
249	0x67	103
250	0xb2	-78
251	0xff	-1
252	0x01	1
253	0x3d	61
254	0xdd	-35
255	0x4f	79

model_1/block_6_expand/Conv2D i1 [96, 1, 1, 16]
0	0xed	-19
1	0x3d	61
2	0xf7	-9
3	0x81	-127
4	0xd8	-40
5	0xe0	-32
6	0xd2	-46
7	0xbc	-68
8	0xe3	-29
9	0x14	20
10	0xf9	-7
11	0x39	57
12	0x12	18
13	0xc8	-56
14	0xe4	-28
15	0x38	56
16	0xdc	-36
17	0x02	2
18	0xb2	-78
19	0xe8	-24
20	0xe6	-26
21	0xd0	-48
22	0x1b	27
23	0x98	-104
24	0x3b	59
25	0x3e	62
26	0xbd	-67
27	0xff	-1
28	0x0b	11
29	0xf1	-15
30	0x37	55
31	0x81	-127
32	0xff	-1
33	0x1f	31
34	0xea	-22
35	0x32	50
36	0x25	37
37	0x1a	26
38	0xc6	-58
39	0xca	-54
40	0x7f	127
41	0xcb	-53
42	0x20	32
43	0x25	37
44	0xe2	-30
45	0x73	115
46	0xbc	-68
47	0x27	39
48	0x15	21
49	0xd4	-44
50	0x1e	30
51	0xba	-70
52	0x03	3
53	0xf3	-13
54	0xea	-22
55	0x0c	12
56	0x60	96
57	0x04	4
58	0x33	51
59	0x1a	26
60	0xe8	-24
61	0x36	54
62	0x17	23
63	0x7f	127
64	0xb5	-75
65	0x1b	27
66	0x1d	29
67	0x20	32
68	0xf5	-11
69	0xe3	-29
70	0x01	1
71	0x3d	61
72	0xf1	-15
73	0x1e	30
74	0x00	0
75	0xc1	-63
76	0x81	-127
77	0xff	-1
78	0xf1	-15
79	0x4e	78
80	0x08	8
81	0x3e	62
82	0x7f	127
83	0x1d	29
84	0x1a	26
85	0x41	65
86	0xbe	-66
87	0x4b	75
88	0xe0	-32
89	0x4b	75
90	0xf8	-8
91	0xf0	-16
92	0x29	41
93	0xd7	-41
94	0x8c	-116
95	0x08	8
96	0x1b	27
97	0xcf	-49
98	0x78	120
99	0x81	-127
100	0x08	8
101	0x04	4
102	0xc1	-63
103	0x50	80
104	0xba	-70
105	0x8b	-117
106	0x39	57
107	0xde	-34
108	0xf0	-16
109	0x56	86
110	0xeb	-21
111	0x5b	91
112	0x32	50
113	0x7b	123
114	0xf7	-9
115	0xc7	-57
116	0x6f	111
117	0x1e	30
118	0xf2	-14
119	0xbb	-69
120	0x7f	127
121	0x55	85
122	0xf1	-15
123	0x11	17
124	0x24	36
125	0xfc	-4
126	0x4d	77
127	0x19	25
128	0xfa	-6
129	0xa2	-94
130	0x0c	12
131	0x96	-106
132	0x1b	27
133	0xc5	-59
134	0x04	4
135	0xc0	-64
136	0x0d	13
137	0x4c	76
138	0x47	71
139	0xe7	-25
140	0x16	22
141	0x7f	127
142	0x48	72
143	0x37	55
144	0x05	5
145	0xdb	-37
146	0x00	0
147	0x7f	127
148	0x33	51
149	0xf7	-9
150	0x36	54
151	0xcd	-51
152	0xc3	-61
153	0x76	118
154	0x24	36
155	0xea	-22
156	0xf4	-12
157	0xc9	-55
158	0xf6	-10
159	0xfa	-6
160	0x08	8
161	0x30	48
162	0xd1	-47
163	0x81	-127
164	0x19	25
165	0x0c	12
166	0xfc	-4
167	0x25	37
168	0x27	39
169	0xcc	-52
170	0x17	23
171	0xf4	-12
172	0x03	3
173	0xbe	-66
174	0x10	16
175	0x08	8
176	0x0e	14
177	0x0d	13
178	0x14	20
179	0xe5	-27
180	0x65	101
181	0xd9	-39
182	0x69	105
183	0xc4	-60
184	0x9f	-97
185	0x27	39
186	0xfa	-6
187	0x15	21
188	0x09	9
189	0x7f	127
190	0xc1	-63
191	0xe9	-23
192	0x20	32
193	0xde	-34
194	0x90	-112
195	0xd8	-40
196	0x1d	29
197	0xb3	-77
198	0x1e	30
199	0x0a	10
200	0x00	0
201	0x2f	47
202	0xa9	-87
203	0xae	-82
204	0xce	-50
205	0x7f	127
206	0x04	4
207	0x29	41
208	0xf0	-16
209	0xfc	-4
210	0xea	-22
211	0x14	20
212	0x0e	14
213	0x81	-127
214	0xf7	-9
215	0x09	9
216	0x00	0
217	0xfa	-6
218	0x03	3
219	0xfa	-6
220	0x06	6
221	0xfb	-5
222	0x11	17
223	0x0d	13
224	0xf9	-7
225	0xd2	-46
226	0x5a	90
227	0xd4	-44
228	0x4d	77
229	0xfb	-5
230	0x88	-120
231	0x81	-127
232	0xde	-34
233	0xf4	-12
234	0x25	37
235	0xfb	-5
236	0xf8	-8
237	0xca	-54
238	0x0d	13
239	0xd4	-44
240	0x81	-127
241	0x3d	61
242	0x03	3
243	0xca	-54
244	0xfa	-6
245	0x14	20
246	0x78	120
247	0x48	72
248	0xe5	-27
249	0x39	57
250	0x7f	127
251	0x00	0
252	0x16	22
253	0x70	112
254	0x21	33
255	0xd5	-43

model_1/block_5_project/Conv2D i1 [16, 1, 1, 96]
0	0xf4	-12
1	0xeb	-21
2	0x0e	14
3	0xd7	-41
4	0x06	6
5	0xec	-20
6	0xd6	-42
7	0x08	8
8	0x06	6
9	0x06	6
10	0x05	5
11	0xf7	-9
12	0xf7	-9
13	0xfa	-6
14	0xe6	-26
15	0x08	8
16	0xff	-1
17	0x05	5
18	0x0b	11
19	0xf8	-8
20	0xf9	-7
21	0xe0	-32
22	0x0a	10
23	0xfa	-6
24	0xff	-1
25	0x02	2
26	0xf9	-7
27	0x7f	127
28	0x21	33
29	0xe8	-24
30	0x36	54
31	0xfa	-6
32	0x00	0
33	0x11	17
34	0x10	16
35	0xff	-1
36	0xea	-22
37	0x0a	10
38	0xcf	-49
39	0x02	2
40	0xf6	-10
41	0x1c	28
42	0x06	6
43	0x28	40
44	0x06	6
45	0x03	3
46	0x09	9
47	0x05	5
48	0x19	25
49	0x01	1
50	0xec	-20
51	0x0c	12
52	0x0d	13
53	0xe3	-29
54	0xee	-18
55	0x43	67
56	0x0e	14
57	0x0a	10
58	0xe9	-23
59	0xd8	-40
60	0xff	-1
61	0x17	23
62	0xfc	-4
63	0xde	-34
64	0xc8	-56
65	0xd0	-48
66	0xf5	-11
67	0x2b	43
68	0xfa	-6
69	0x0d	13
70	0x0b	11
71	0xea	-22
72	0x09	9
73	0xe6	-26
74	0xfd	-3
75	0xe9	-23
76	0xd1	-47
77	0x1f	31
78	0xfe	-2
79	0x00	0
80	0xf0	-16
81	0xf0	-16
82	0x23	35
83	0x10	16
84	0xfc	-4
85	0xf0	-16
86	0xfd	-3
87	0xa5	-91
88	0xfd	-3
89	0xe9	-23
90	0x07	7
91	0x04	4
92	0x2f	47
93	0xd4	-44
94	0xd5	-43
95	0xed	-19
96	0x3d	61
97	0xa2	-94
98	0xa5	-91
99	0xa2	-94
100	0x63	99
101	0xe2	-30
102	0x51	81
103	0x32	50
104	0xd7	-41
105	0xb6	-74
106	0xb1	-79
107	0xd2	-46
108	0x13	19
109	0x02	2
110	0xc0	-64
111	0x2b	43
112	0xbd	-67
113	0x05	5
114	0x22	34
115	0x0a	10
116	0x1a	26
117	0x29	41
118	0xe5	-27
119	0xbe	-66
120	0x0d	13
121	0xe5	-27
122	0xe5	-27
123	0xb4	-76
124	0x1e	30
125	0xff	-1
126	0xd9	-39
127	0x2c	44
128	0xdc	-36
129	0x22	34
130	0x0d	13
131	0x0b	11
132	0xed	-19
133	0x0b	11
134	0xe9	-23
135	0x2c	44
136	0xdf	-33
137	0x56	86
138	0xbf	-65
139	0xe3	-29
140	0xf6	-10
141	0x51	81
142	0x21	33
143	0xf9	-7
144	0x07	7
145	0xb9	-71
146	0x08	8
147	0x09	9
148	0xeb	-21
149	0x1b	27
150	0x20	32
151	0xfb	-5
152	0xae	-82
153	0xe5	-27
154	0xdb	-37
155	0xe3	-29
156	0x24	36
157	0xe9	-23
158	0xf6	-10
159	0xe0	-32
160	0xa2	-94
161	0x5b	91
162	0xfd	-3
163	0xe0	-32
164	0xeb	-21
165	0xdc	-36
166	0xf9	-7
167	0x01	1
168	0x51	81
169	0x83	-125
170	0xe6	-26
171	0xee	-18
172	0xf4	-12
173	0xcc	-52
174	0x2b	43
175	0x18	24
176	0xe0	-32
177	0xe6	-26
178	0x1e	30
179	0x01	1
180	0xc6	-58
181	0x24	36
182	0x1a	26
183	0x1d	29
184	0x14	20
185	0xbd	-67
186	0xee	-18
187	0x11	17
188	0x1e	30
189	0xea	-22
190	0x29	41
191	0x7f	127
192	0xe7	-25
193	0x4f	79
194	0x96	-106
195	0x03	3
196	0x50	80
197	0x5d	93
198	0x29	41
199	0x43	67
200	0xfc	-4
201	0x91	-111
202	0xfc	-4
203	0xf1	-15
204	0xf8	-8
205	0x0b	11
206	0x1b	27
207	0x17	23
208	0x0d	13
209	0xe6	-26
210	0xcb	-53
211	0x42	66
212	0x45	69
213	0x0f	15
214	0x52	82
215	0x16	22
216	0x31	49
217	0x12	18
218	0xfa	-6
219	0xcc	-52
220	0x2c	44
221	0x05	5
222	0x2b	43
223	0xbb	-69
224	0x1e	30
225	0x1f	31
226	0xe8	-24
227	0x15	21
228	0x81	-127
229	0xa6	-90
230	0x3f	63
231	0x1b	27
232	0x17	23
233	0xcd	-51
234	0x14	20
235	0xee	-18
236	0x02	2
237	0xee	-18
238	0x0b	11
239	0x41	65
240	0xfa	-6
241	0x20	32
242	0xeb	-21
243	0x04	4
244	0x5b	91
245	0x06	6
246	0xf9	-7
247	0x3a	58
248	0x29	41
249	0x08	8
250	0x1f	31
251	0xfb	-5
252	0x1b	27
253	0x28	40
254	0x21	33
255	0xde	-34

model_1/block_5_depthwise_BN/FusedBatchNormV3;model_1/block_5_depthwise/depthwise;model_1/block_6_expand/Conv2D i1 [1, 3, 3, 96]
0	0xcf	-49
1	0xba	-70
2	0xf6	-10
3	0x7f	127
4	0x17	23
5	0x45	69
6	0x4d	77
7	0xc4	-60
8	0xf3	-13
9	0xef	-17
10	0xef	-17
11	0xf9	-7
12	0xe2	-30
13	0x02	2
14	0x27	39
15	0x03	3
16	0xf7	-9
17	0xd3	-45
18	0x1a	26
19	0x19	25
20	0x15	21
21	0x81	-127
22	0x7f	127
23	0x08	8
24	0xab	-85
25	0x0c	12
26	0x30	48
27	0xe2	-30
28	0x81	-127
29	0x81	-127
30	0x26	38
31	0x1c	28
32	0x0c	12
33	0x1b	27
34	0x3d	61
35	0xef	-17
36	0xe2	-30
37	0xf6	-10
38	0x1f	31
39	0xfc	-4
40	0xf3	-13
41	0x1a	26
42	0x90	-112
43	0x4b	75
44	0x19	25
45	0xbb	-69
46	0x25	37
47	0x30	48
48	0xee	-18
49	0x34	52
50	0xe8	-24
51	0x13	19
52	0x06	6
53	0xf8	-8
54	0x0f	15
55	0x32	50
56	0xa3	-93
57	0xd0	-48
58	0xc2	-62
59	0xed	-19
60	0xf7	-9
61	0xfb	-5
62	0x0d	13
63	0x23	35
64	0x46	70
65	0xe6	-26
66	0x4c	76
67	0x12	18
68	0xfa	-6
69	0x12	18
70	0x12	18
71	0x7f	127
72	0x1c	28
73	0x1a	26
74	0x1b	27
75	0x00	0
76	0xf7	-9
77	0x16	22
78	0x7f	127
79	0xfc	-4
80	0xf1	-15
81	0x0e	14
82	0xe7	-25
83	0x16	22
84	0x79	121
85	0x14	20
86	0xb1	-79
87	0xef	-17
88	0x07	7
89	0xe1	-31
90	0xf0	-16
91	0xd7	-41
92	0x01	1
93	0xe8	-24
94	0xef	-17
95	0x19	25
96	0x7f	127
97	0x84	-124
98	0x4b	75
99	0x6a	106
100	0xd5	-43
101	0x7f	127
102	0x22	34
103	0x8a	-118
104	0x48	72
105	0x04	4
106	0xeb	-21
107	0x7f	127
108	0x7f	127
109	0xa1	-95
110	0xf3	-13
111	0x12	18
112	0x0c	12
113	0x7f	127
114	0x7f	127
115	0x91	-111
116	0x7f	127
117	0xb5	-75
118	0x50	80
119	0x44	68
120	0x81	-127
121	0x93	-109
122	0xbd	-67
123	0xde	-34
124	0xcc	-52
125	0x2f	47
126	0xc4	-60
127	0xf1	-15
128	0xa6	-90
129	0x36	54
130	0x81	-127
131	0xaf	-81
132	0xd5	-43
133	0xf1	-15
134	0xcf	-49
135	0x3c	60
136	0xff	-1
137	0x7f	127
138	0x7f	127
139	0x57	87
140	0xce	-50
141	0x8d	-115
142	0x90	-112
143	0xce	-50
144	0xf2	-14
145	0x81	-127
146	0x2d	45
147	0x53	83
148	0x44	68
149	0xdf	-33
150	0x2b	43
151	0x53	83
152	0xcd	-51
153	0x28	40
154	0xb4	-76
155	0x91	-111
156	0xd5	-43
157	0xd3	-45
158	0xc5	-59
159	0x42	66
160	0x4c	76
161	0xc4	-60
162	0x1c	28
163	0x24	36
164	0xb3	-77
165	0x20	32
166	0xee	-18
167	0x5c	92
168	0x7e	126
169	0x7f	127
170	0x0d	13
171	0x15	21
172	0x03	3
173	0x40	64
174	0xe0	-32
175	0x37	55
176	0x3d	61
177	0x7f	127
178	0x7f	127
179	0xea	-22
180	0xf6	-10
181	0x4d	77
182	0x8f	-113
183	0x7f	127
184	0x8b	-117
185	0x9d	-99
186	0x05	5
187	0x81	-127
188	0xa4	-92
189	0x81	-127
190	0xd9	-39
191	0x68	104
192	0xb3	-77
193	0xf3	-13
194	0x1e	30
195	0xad	-83
196	0x10	16
197	0xe6	-26
198	0x44	68
199	0xfa	-6
200	0x54	84
201	0xdd	-35
202	0xe2	-30
203	0x12	18
204	0xed	-19
205	0xfd	-3
206	0xf9	-7
207	0xf5	-11
208	0xf8	-8
209	0xef	-17
210	0x06	6
211	0xff	-1
212	0xed	-19
213	0x9e	-98
214	0x20	32
215	0xfd	-3
216	0x86	-122
217	0x5a	90
218	0x05	5
219	0xca	-54
220	0x76	118
221	0x33	51
222	0xef	-17
223	0x0d	13
224	0x00	0
225	0x11	17
226	0x0f	15
227	0xe5	-27
228	0xf7	-9
229	0x22	34
230	0x15	21
231	0x04	4
232	0x19	25
233	0x0c	12
234	0x88	-120
235	0x47	71
236	0x11	17
237	0xec	-20
238	0x25	37
239	0x0e	14
240	0xf2	-14
241	0x0a	10
242	0xf0	-16
243	0x05	5
244	0xf3	-13
245	0xfe	-2
246	0xfb	-5
247	0x14	20
248	0xba	-70
249	0x08	8
250	0xdd	-35
251	0x33	51
252	0x03	3
253	0x26	38
254	0x23	35
255	0xf9	-7

model_1/block_5_expand/Conv2D i1 [96, 1, 1, 16]
0	0x32	50
1	0x32	50
2	0xf8	-8
3	0x5d	93
4	0x25	37
5	0x05	5
6	0x07	7
7	0xee	-18
8	0x0e	14
9	0x05	5
10	0xa0	-96
11	0x64	100
12	0xf6	-10
13	0x81	-127
14	0x2f	47
15	0xb4	-76
16	0x15	21
17	0x37	55
18	0xde	-34
19	0xe4	-28
20	0x11	17
21	0xbf	-65
22	0x7f	127
23	0x83	-125
24	0xfc	-4
25	0x4c	76
26	0xf0	-16
27	0xc6	-58
28	0x11	17
29	0xc6	-58
30	0x2c	44
31	0x13	19
32	0x9e	-98
33	0x40	64
34	0xe5	-27
35	0xd3	-45
36	0xe7	-25
37	0xf7	-9
38	0x07	7
39	0x7f	127
40	0xd6	-42
41	0x32	50
42	0x5c	92
43	0xe8	-24
44	0xd6	-42
45	0xfd	-3
46	0x09	9
47	0xdc	-36
48	0xa9	-87
49	0x41	65
50	0x6b	107
51	0x13	19
52	0xa5	-91
53	0x61	97
54	0x4d	77
55	0x51	81
56	0x14	20
57	0x5b	91
58	0x81	-127
59	0x35	53
60	0x51	81
61	0x8c	-116
62	0xd0	-48
63	0xc2	-62
64	0x11	17
65	0xfc	-4
66	0x29	41
67	0x45	69
68	0xdd	-35
69	0x31	49
70	0xf7	-9
71	0x40	64
72	0x15	21
73	0xec	-20
74	0x02	2
75	0x05	5
76	0x05	5
77	0x19	25
78	0x81	-127
79	0xee	-18
80	0xf5	-11
81	0xd7	-41
82	0x36	54
83	0x01	1
84	0x04	4
85	0xe5	-27
86	0xf7	-9
87	0x2b	43
88	0xba	-70
89	0x43	67
90	0xe6	-26
91	0x81	-127
92	0xf3	-13
93	0x2c	44
94	0xce	-50
95	0xe6	-26
96	0x01	1
97	0x0f	15
98	0x0a	10
99	0xf7	-9
100	0x33	51
101	0x46	70
102	0x92	-110
103	0x8f	-113
104	0xf6	-10
105	0xf2	-14
106	0x3a	58
107	0x09	9
108	0x7f	127
109	0xf2	-14
110	0xec	-20
111	0xc8	-56
112	0xfb	-5
113	0x07	7
114	0x7f	127
115	0xed	-19
116	0xf5	-11
117	0xea	-22
118	0x0a	10
119	0xfe	-2
120	0xbf	-65
121	0x13	19
122	0xcd	-51
123	0xf8	-8
124	0x1d	29
125	0xf4	-12
126	0x3c	60
127	0xf4	-12
128	0x1a	26
129	0x19	25
130	0x14	20
131	0x1b	27
132	0xe0	-32
133	0x27	39
134	0x1f	31
135	0xff	-1
136	0x1d	29
137	0x09	9
138	0x3b	59
139	0x9a	-102
140	0xe2	-30
141	0xe9	-23
142	0x97	-105
143	0x81	-127
144	0x41	65
145	0x81	-127
146	0x5b	91
147	0x1d	29
148	0x3e	62
149	0xe5	-27
150	0xf3	-13
151	0x12	18
152	0x69	105
153	0xf5	-11
154	0x4b	75
155	0x18	24
156	0xfd	-3
157	0x1a	26
158	0xaa	-86
159	0xe4	-28
160	0xfd	-3
161	0x81	-127
162	0xef	-17
163	0x1f	31
164	0xc0	-64
165	0x0b	11
166	0x09	9
167	0x2e	46
168	0x71	113
169	0x5b	91
170	0x42	66
171	0xd3	-45
172	0xbe	-66
173	0x3b	59
174	0x50	80
175	0x0d	13
176	0x20	32
177	0xdb	-37
178	0x38	56
179	0xa4	-92
180	0xf5	-11
181	0xef	-17
182	0xa9	-87
183	0x81	-127
184	0xa7	-89
185	0x2a	42
186	0xcd	-51
187	0xd5	-43
188	0x16	22
189	0xd5	-43
190	0x21	33
191	0xc7	-57
192	0x0d	13
193	0xf4	-12
194	0x0e	14
195	0xc6	-58
196	0xd6	-42
197	0xd6	-42
198	0x81	-127
199	0xd7	-41
200	0x9d	-99
201	0xd3	-45
202	0xbd	-67
203	0x28	40
204	0xed	-19
205	0x7d	125
206	0x60	96
207	0x4f	79
208	0xc8	-56
209	0x81	-127
210	0xdb	-37
211	0x3f	63
212	0x04	4
213	0xdb	-37
214	0x0c	12
215	0xfd	-3
216	0x3c	60
217	0x2c	44
218	0xf7	-9
219	0x09	9
220	0x12	18
221	0x21	33
222	0x68	104
223	0x09	9
224	0xfa	-6
225	0xb7	-73
226	0x1f	31
227	0x16	22
228	0x2d	45
229	0xfe	-2
230	0x1b	27
231	0x7f	127
232	0x0c	12
233	0x33	51
234	0xff	-1
235	0xdd	-35
236	0xff	-1
237	0x15	21
238	0xb0	-80
239	0x71	113
240	0x19	25
241	0xd7	-41
242	0x0b	11
243	0x47	71
244	0x19	25
245	0x08	8
246	0x60	96
247	0x00	0
248	0x08	8
249	0x81	-127
250	0x19	25
251	0xd8	-40
252	0x06	6
253	0xf0	-16
254	0xf8	-8
255	0xe2	-30

model_1/block_4_project/Conv2D i1 [16, 1, 1, 96]
0	0x04	4
1	0x20	32
2	0xf5	-11
3	0x0b	11
4	0x23	35
5	0x3f	63
6	0xe7	-25
7	0xdd	-35
8	0x2e	46
9	0xfc	-4
10	0x00	0
11	0x03	3
12	0xf2	-14
13	0x01	1
14	0x0e	14
15	0x46	70
16	0x06	6
17	0xfa	-6
18	0xee	-18
19	0xf5	-11
20	0x6a	106
21	0xcb	-53
22	0x08	8
23	0xeb	-21
24	0xf2	-14
25	0xd9	-39
26	0xdd	-35
27	0xa5	-91
28	0xf8	-8
29	0x03	3
30	0x29	41
31	0x27	39
32	0x63	99
33	0xf9	-7
34	0x00	0
35	0xfd	-3
36	0x07	7
37	0xde	-34
38	0xe9	-23
39	0xff	-1
40	0xee	-18
41	0x15	21
42	0x0e	14
43	0xdb	-37
44	0xfd	-3
45	0xe7	-25
46	0xf8	-8
47	0x0d	13
48	0xf2	-14
49	0x06	6
50	0x19	25
51	0xfc	-4
52	0xcc	-52
53	0xec	-20
54	0xfa	-6
55	0x00	0
56	0x17	23
57	0x18	24
58	0xe8	-24
59	0xe5	-27
60	0xbf	-65
61	0x10	16
62	0xf1	-15
63	0xee	-18
64	0x09	9
65	0x07	7
66	0x2e	46
67	0xfa	-6
68	0x02	2
69	0x11	17
70	0x08	8
71	0xd9	-39
72	0xb6	-74
73	0xf8	-8
74	0xfb	-5
75	0xf6	-10
76	0xed	-19
77	0xb0	-80
78	0xff	-1
79	0xeb	-21
80	0x19	25
81	0xd7	-41
82	0xca	-54
83	0xd7	-41
84	0x13	19
85	0xee	-18
86	0x07	7
87	0x16	22
88	0xf7	-9
89	0xf1	-15
90	0x17	23
91	0xe9	-23
92	0x1a	26
93	0x15	21
94	0xf5	-11
95	0x7f	127
96	0x3a	58
97	0x9c	-100
98	0x21	33
99	0x3e	62
100	0xf3	-13
101	0xbe	-66
102	0x03	3
103	0xb4	-76
104	0xeb	-21
105	0xb9	-71
106	0x0f	15
107	0x0f	15
108	0xfd	-3
109	0xbc	-68
110	0xd6	-42
111	0xc3	-61
112	0xb6	-74
113	0xf2	-14
114	0x08	8
115	0x21	33
116	0xf2	-14
117	0xb9	-71
118	0xf2	-14
119	0x3b	59
120	0x69	105
121	0xbd	-67
122	0xd4	-44
123	0xf0	-16
124	0xc5	-59
125	0x5c	92
126	0xe9	-23
127	0x55	85
128	0xf6	-10
129	0x12	18
130	0xd2	-46
131	0xfd	-3
132	0xfe	-2
133	0xc8	-56
134	0x31	49
135	0xe3	-29
136	0xff	-1
137	0xba	-70
138	0x2e	46
139	0xdf	-33
140	0xc5	-59
141	0xee	-18
142	0x50	80
143	0x04	4
144	0x2f	47
145	0xfd	-3
146	0xee	-18
147	0xd7	-41
148	0x3b	59
149	0xd3	-45
150	0x3d	61
151	0xed	-19
152	0xf2	-14
153	0x1e	30
154	0xdd	-35
155	0x9d	-99
156	0x25	37
157	0xab	-85
158	0x15	21
159	0xc3	-61
160	0x0f	15
161	0xb9	-71
162	0x08	8
163	0x23	35
164	0x33	51
165	0x20	32
166	0xd5	-43
167	0x0b	11
168	0x81	-127
169	0x25	37
170	0xf6	-10
171	0x4f	79
172	0x0b	11
173	0x51	81
174	0x0f	15
175	0x00	0
176	0x10	16
177	0x0d	13
178	0xa3	-93
179	0x19	25
180	0xc4	-60
181	0x44	68
182	0x1b	27
183	0x63	99
184	0xd6	-42
185	0x1f	31
186	0x12	18
187	0x2d	45
188	0x10	16
189	0xda	-38
190	0x1c	28
191	0xff	-1
192	0x15	21
193	0x34	52
194	0x06	6
195	0xfa	-6
196	0x09	9
197	0xf4	-12
198	0x0a	10
199	0x29	41
200	0x3b	59
201	0xf4	-12
202	0x06	6
203	0x46	70
204	0x03	3
205	0x09	9
206	0x2a	42
207	0x01	1
208	0xed	-19
209	0xf7	-9
210	0x03	3
211	0x04	4
212	0xea	-22
213	0xa8	-88
214	0x0e	14
215	0xad	-83
216	0xfc	-4
217	0xe4	-28
218	0xe3	-29
219	0x23	35
220	0xfb	-5
221	0x08	8
222	0x71	113
223	0xc2	-62
224	0x0c	12
225	0xb2	-78
226	0xea	-22
227	0x3c	60
228	0x0b	11
229	0x7f	127
230	0xd9	-39
231	0xde	-34
232	0xff	-1
233	0xe9	-23
234	0x02	2
235	0x3f	63
236	0xf2	-14
237	0xdf	-33
238	0xc6	-58
239	0x1a	26
240	0x1d	29
241	0x22	34
242	0xd7	-41
243	0xdf	-33
244	0x19	25
245	0x04	4
246	0xfd	-3
247	0xce	-50
248	0xe7	-25
249	0xed	-19
250	0xf1	-15
251	0x1c	28
252	0x00	0
253	0x00	0
254	0x45	69
255	0x65	101

model_1/block_4_depthwise_BN/FusedBatchNormV3;model_1/block_4_depthwise/depthwise;model_1/block_6_expand/Conv2D i1 [1, 3, 3, 96]
0	0xee	-18
1	0x08	8
2	0xec	-20
3	0x6b	107
4	0xf2	-14
5	0x15	21
6	0xc0	-64
7	0xcb	-53
8	0x12	18
9	0xf9	-7
10	0x61	97
11	0xf7	-9
12	0x02	2
13	0xf8	-8
14	0xfb	-5
15	0x3c	60
16	0x06	6
17	0x10	16
18	0xd9	-39
19	0x03	3
20	0x48	72
21	0x02	2
22	0x20	32
23	0xde	-34
24	0x03	3
25	0x11	17
26	0x28	40
27	0x2e	46
28	0x13	19
29	0x0b	11
30	0x16	22
31	0x33	51
32	0xf8	-8
33	0x1b	27
34	0x0a	10
35	0xf0	-16
36	0x02	2
37	0x32	50
38	0xc5	-59
39	0xe4	-28
40	0x14	20
41	0x0a	10
42	0x1a	26
43	0x13	19
44	0xab	-85
45	0xc8	-56
46	0x1a	26
47	0xf9	-7
48	0xf4	-12
49	0xed	-19
50	0xfb	-5
51	0xf8	-8
52	0x2f	47
53	0x07	7
54	0xf6	-10
55	0x00	0
56	0xfd	-3
57	0xdd	-35
58	0x18	24
59	0xe2	-30
60	0x1b	27
61	0xff	-1
62	0x7f	127
63	0x1b	27
64	0xf2	-14
65	0xf5	-11
66	0x0d	13
67	0xcc	-52
68	0x43	67
69	0x25	37
70	0x00	0
71	0xf8	-8
72	0x52	82
73	0xe1	-31
74	0x45	69
75	0x05	5
76	0x12	18
77	0x83	-125
78	0x1f	31
79	0x41	65
80	0x01	1
81	0x0e	14
82	0x7f	127
83	0xf2	-14
84	0x25	37
85	0x1b	27
86	0xe7	-25
87	0xf0	-16
88	0x24	36
89	0xfd	-3
90	0xf1	-15
91	0x52	82
92	0xff	-1
93	0x14	20
94	0xfd	-3
95	0x0d	13
96	0xce	-50
97	0x0c	12
98	0xf9	-7
99	0x0c	12
100	0x34	52
101	0xf6	-10
102	0xf5	-11
103	0x81	-127
104	0x27	39
105	0x0b	11
106	0x81	-127
107	0xfc	-4
108	0xf0	-16
109	0xf3	-13
110	0x04	4
111	0x63	99
112	0x0f	15
113	0xde	-34
114	0xf0	-16
115	0xef	-17
116	0x4f	79
117	0xa0	-96
118	0x7f	127
119	0x1c	28
120	0xc3	-61
121	0xe1	-31
122	0x96	-106
123	0xf1	-15
124	0x1a	26
125	0x23	35
126	0xce	-50
127	0x14	20
128	0x79	121
129	0x0b	11
130	0xf2	-14
131	0xfe	-2
132	0xe6	-26
133	0x7f	127
134	0xc8	-56
135	0x81	-127
136	0x09	9
137	0xec	-20
138	0xe1	-31
139	0x0f	15
140	0x2f	47
141	0x81	-127
142	0x7f	127
143	0xd2	-46
144	0xb2	-78
145	0x36	54
146	0x36	54
147	0x05	5
148	0x27	39
149	0xc2	-62
150	0x1f	31
151	0x37	55
152	0x27	39
153	0x29	41
154	0x9a	-102
155	0x50	80
156	0x7f	127
157	0x23	35
158	0x05	5
159	0xea	-22
160	0x2d	45
161	0xd9	-39
162	0xa2	-94
163	0xfe	-2
164	0x25	37
165	0xe3	-29
166	0xee	-18
167	0x29	41
168	0xd2	-46
169	0xcf	-49
170	0x69	105
171	0xfd	-3
172	0xe3	-29
173	0xc7	-57
174	0xdf	-33
175	0x42	66
176	0xbb	-69
177	0x3e	62
178	0xed	-19
179	0x09	9
180	0xf5	-11
181	0x30	48
182	0x3c	60
183	0xd9	-39
184	0xe7	-25
185	0x36	54
186	0xf3	-13
187	0x4a	74
188	0x81	-127
189	0xe0	-32
190	0x17	23
191	0x81	-127
192	0xfe	-2
193	0x00	0
194	0xe7	-25
195	0xb6	-74
196	0x0a	10
197	0x12	18
198	0x25	37
199	0x14	20
200	0xfd	-3
201	0xfd	-3
202	0x04	4
203	0x3d	61
204	0xff	-1
205	0xf4	-12
206	0xf5	-11
207	0x0a	10
208	0xf0	-16
209	0x11	17
210	0xf1	-15
211	0x0f	15
212	0x06	6
213	0x19	25
214	0x17	23
215	0xe1	-31
216	0x01	1
217	0xe0	-32
218	0x07	7
219	0x0b	11
220	0xf8	-8
221	0x07	7
222	0x2e	46
223	0xb1	-79
224	0x2e	46
225	0x10	16
226	0x09	9
227	0xe8	-24
228	0x0a	10
229	0x05	5
230	0xdd	-35
231	0xea	-22
232	0x09	9
233	0x03	3
234	0xef	-17
235	0x08	8
236	0x16	22
237	0xe4	-28
238	0x15	21
239	0xff	-1
240	0x05	5
241	0xf9	-7
242	0x07	7
243	0xfb	-5
244	0x06	6
245	0x07	7
246	0xfa	-6
247	0x08	8
248	0xf9	-7
249	0x2d	45
250	0x09	9
251	0xfc	-4
252	0x0a	10
253	0xf2	-14
254	0x05	5
255	0xef	-17

model_1/block_4_expand/Conv2D i1 [96, 1, 1, 16]
0	0x28	40
1	0xde	-34
2	0x61	97
3	0x7f	127
4	0x28	40
5	0xd7	-41
6	0x1b	27
7	0xc4	-60
8	0x7b	123
9	0xca	-54
10	0xa4	-92
11	0xa8	-88
12	0x56	86
13	0x69	105
14	0xeb	-21
15	0x9e	-98
16	0x45	69
17	0x55	85
18	0xc8	-56
19	0xda	-38
20	0x6f	111
21	0xb2	-78
22	0xe5	-27
23	0x57	87
24	0x01	1
25	0x49	73
26	0x98	-104
27	0x77	119
28	0x2c	44
29	0xdb	-37
30	0x7f	127
31	0x81	-127
32	0x06	6
33	0xa9	-87
34	0xf1	-15
35	0x02	2
36	0xc9	-55
37	0x04	4
38	0xe0	-32
39	0x33	51
40	0xac	-84
41	0x81	-127
42	0x20	32
43	0x3d	61
44	0xe6	-26
45	0x88	-120
46	0x7e	126
47	0x97	-105
48	0x7c	124
49	0x72	114
50	0xf3	-13
51	0x18	24
52	0x81	-127
53	0xe2	-30
54	0xad	-83
55	0xdf	-33
56	0xf7	-9
57	0xfa	-6
58	0x46	70
59	0xb6	-74
60	0xce	-50
61	0x4d	77
62	0xd8	-40
63	0xe5	-27
64	0xef	-17
65	0xef	-17
66	0xf7	-9
67	0x23	35
68	0xe3	-29
69	0x14	20
70	0x0d	13
71	0x43	67
72	0xb9	-71
73	0xea	-22
74	0xfe	-2
75	0x0b	11
76	0x07	7
77	0x81	-127
78	0x11	17
79	0x15	21
80	0x69	105
81	0xcb	-53
82	0xe9	-23
83	0xfc	-4
84	0x05	5
85	0x81	-127
86	0xca	-54
87	0xf9	-7
88	0x03	3
89	0x11	17
90	0x8f	-113
91	0xf9	-7
92	0x09	9
93	0xf1	-15
94	0xf6	-10
95	0x25	37
96	0x85	-123
97	0xc4	-60
98	0xf8	-8
99	0x75	117
100	0xc9	-55
101	0x16	22
102	0xf0	-16
103	0x34	52
104	0x81	-127
105	0xbe	-66
106	0xd5	-43
107	0xe1	-31
108	0x31	49
109	0x4b	75
110	0xfc	-4
111	0x5c	92
112	0xea	-22
113	0x0d	13
114	0xa7	-89
115	0x34	52
116	0x3a	58
117	0x81	-127
118	0xd8	-40
119	0x20	32
120	0x13	19
121	0xd0	-48
122	0x36	54
123	0xeb	-21
124	0x06	6
125	0x23	35
126	0xe7	-25
127	0x0d	13
128	0x19	25
129	0xd9	-39
130	0xef	-17
131	0xf2	-14
132	0x12	18
133	0x1c	28
134	0xcb	-53
135	0xce	-50
136	0xf0	-16
137	0x0f	15
138	0xc8	-56
139	0x19	25
140	0x81	-127
141	0xfc	-4
142	0xf2	-14
143	0x11	17
144	0x2a	42
145	0xc9	-55
146	0x1d	29
147	0x7f	127
148	0x07	7
149	0xfe	-2
150	0x06	6
151	0xb4	-76
152	0x7f	127
153	0xb6	-74
154	0x05	5
155	0xf3	-13
156	0x08	8
157	0x1a	26
158	0xb4	-76
159	0x05	5
160	0x81	-127
161	0xcc	-52
162	0xe8	-24
163	0xd1	-47
164	0x43	67
165	0x16	22
166	0x2a	42
167	0x33	51
168	0x3d	61
169	0xf3	-13
170	0xc7	-57
171	0x36	54
172	0x12	18
173	0xbc	-68
174	0xab	-85
175	0x5b	91
176	0x35	53
177	0xde	-34
178	0x81	-127
179	0x13	19
180	0x47	71
181	0x12	18
182	0xd2	-46
183	0x33	51
184	0x05	5
185	0xd5	-43
186	0xe1	-31
187	0xf6	-10
188	0x0b	11
189	0x28	40
190	0xe8	-24
191	0x05	5
192	0x54	84
193	0xf1	-15
194	0xf3	-13
195	0x08	8
196	0xdb	-37
197	0xc8	-56
198	0xff	-1
199	0xda	-38
200	0x30	48
201	0x22	34
202	0x81	-127
203	0xde	-34
204	0xd6	-42
205	0x07	7
206	0x0b	11
207	0x58	88
208	0x40	64
209	0xbf	-65
210	0xef	-17
211	0x81	-127
212	0x35	53
213	0xe0	-32
214	0xae	-82
215	0x92	-110
216	0xf5	-11
217	0xc4	-60
218	0x07	7
219	0xec	-20
220	0xfd	-3
221	0xcd	-51
222	0xfe	-2
223	0x2e	46
224	0xcd	-51
225	0x33	51
226	0xac	-84
227	0xea	-22
228	0x59	89
229	0x81	-127
230	0x3d	61
231	0xc7	-57
232	0x3a	58
233	0x42	66
234	0xe3	-29
235	0x97	-105
236	0x27	39
237	0x73	115
238	0xfa	-6
239	0x14	20
240	0x04	4
241	0x0b	11
242	0x46	70
243	0x17	23
244	0x2e	46
245	0xe7	-25
246	0xe4	-28
247	0xec	-20
248	0x0c	12
249	0xca	-54
250	0xd0	-48
251	0xfe	-2
252	0x81	-127
253	0xd9	-39
254	0xf1	-15
255	0x2e	46

model_1/block_3_project/Conv2D i1 [16, 1, 1, 48]
0	0xf1	-15
1	0xf1	-15
2	0xed	-19
3	0x01	1
4	0x20	32
5	0x03	3
6	0xf2	-14
7	0x6c	108
8	0xc6	-58
9	0x16	22
10	0x2a	42
11	0xf1	-15
12	0x1c	28
13	0xfe	-2
14	0xe6	-26
15	0x0c	12
16	0x16	22
17	0xf0	-16
18	0xea	-22
19	0xf4	-12
20	0x33	51
21	0xf8	-8
22	0x15	21
23	0x7b	123
24	0xeb	-21
25	0x61	97
26	0xef	-17
27	0xf3	-13
28	0x27	39
29	0xeb	-21
30	0x1b	27
31	0xde	-34
32	0xe3	-29
33	0x2f	47
34	0x0d	13
35	0xc7	-57
36	0x17	23
37	0x3e	62
38	0x0d	13
39	0xf4	-12
40	0x85	-123
41	0xe6	-26
42	0x04	4
43	0x36	54
44	0x1d	29
45	0x09	9
46	0x81	-127
47	0xd2	-46
48	0xe6	-26
49	0xf1	-15
50	0x0f	15
51	0x0c	12
52	0xd8	-40
53	0x03	3
54	0x04	4
55	0x3b	59
56	0xc8	-56
57	0xd5	-43
58	0xff	-1
59	0xd0	-48
60	0xe9	-23
61	0xf1	-15
62	0xfb	-5
63	0xf4	-12
64	0xe3	-29
65	0x7a	122
66	0xe8	-24
67	0x15	21
68	0xfa	-6
69	0x06	6
70	0xea	-22
71	0xf3	-13
72	0x18	24
73	0xd7	-41
74	0x13	19
75	0x0f	15
76	0xd8	-40
77	0xa4	-92
78	0xd8	-40
79	0x17	23
80	0xf1	-15
81	0xf7	-9
82	0x24	36
83	0x02	2
84	0x03	3
85	0xd6	-42
86	0xff	-1
87	0x16	22
88	0xec	-20
89	0xe2	-30
90	0x7f	127
91	0x0a	10
92	0x17	23
93	0xfb	-5
94	0x0f	15
95	0xfb	-5
96	0xe8	-24
97	0xf6	-10
98	0xf3	-13
99	0xe0	-32
100	0x01	1
101	0xbc	-68
102	0xff	-1
103	0xeb	-21
104	0x05	5
105	0x0d	13
106	0x04	4
107	0x1d	29
108	0x10	16
109	0x06	6
110	0xf2	-14
111	0x05	5
112	0xfc	-4
113	0xef	-17
114	0xec	-20
115	0xf1	-15
116	0x00	0
117	0xff	-1
118	0x08	8
119	0x81	-127
120	0xf8	-8
121	0x4a	74
122	0xf5	-11
123	0x04	4
124	0xff	-1
125	0xeb	-21
126	0xf9	-7
127	0xfb	-5
128	0xf7	-9
129	0x36	54
130	0x08	8
131	0x00	0
132	0x11	17
133	0x0b	11
134	0x19	25
135	0x00	0
136	0xdb	-37
137	0x04	4
138	0xf1	-15
139	0xfa	-6
140	0xf6	-10
141	0xf5	-11
142	0x0b	11
143	0x00	0
144	0xfd	-3
145	0x21	33
146	0x04	4
147	0xe3	-29
148	0xfd	-3
149	0xff	-1
150	0x07	7
151	0xf9	-7
152	0xf0	-16
153	0xf8	-8
154	0x07	7
155	0x2e	46
156	0x81	-127
157	0x11	17
158	0x00	0
159	0xfe	-2
160	0xfd	-3
161	0x0b	11
162	0xef	-17
163	0xff	-1
164	0xe4	-28
165	0x06	6
166	0x0b	11
167	0x10	16
168	0xf9	-7
169	0xfa	-6
170	0x00	0
171	0x18	24
172	0xfb	-5
173	0x14	20
174	0x04	4
175	0x0c	12
176	0x05	5
177	0x05	5
178	0x0f	15
179	0x18	24
180	0xf4	-12
181	0x16	22
182	0x23	35
183	0x0c	12
184	0x09	9
185	0x05	5
186	0x20	32
187	0xde	-34
188	0x0e	14
189	0xf6	-10
190	0x06	6
191	0x11	17
192	0x25	37
193	0xde	-34
194	0x05	5
195	0x0b	11
196	0x1c	28
197	0x17	23
198	0x17	23
199	0xef	-17
200	0xde	-34
201	0xfd	-3
202	0xfb	-5
203	0xf1	-15
204	0xfe	-2
205	0x14	20
206	0x07	7
207	0x11	17
208	0x10	16
209	0xf6	-10
210	0xb5	-75
211	0x01	1
212	0xff	-1
213	0x04	4
214	0x0c	12
215	0x4c	76
216	0x09	9
217	0xed	-19
218	0xfb	-5
219	0x2e	46
220	0x0b	11
221	0xb1	-79
222	0x14	20
223	0x05	5
224	0x07	7
225	0xdf	-33
226	0x25	37
227	0x81	-127
228	0x11	17
229	0x1b	27
230	0x02	2
231	0x19	25
232	0xed	-19
233	0x12	18
234	0x11	17
235	0xe2	-30
236	0xf2	-14
237	0xf0	-16
238	0x08	8
239	0xfd	-3
240	0x1d	29
241	0x00	0
242	0xf2	-14
243	0x37	55
244	0xfc	-4
245	0xf3	-13
246	0x03	3
247	0x1c	28
248	0x04	4
249	0xfc	-4
250	0x1f	31
251	0x09	9
252	0x02	2
253	0x2d	45
254	0xfe	-2
255	0x03	3

model_1/block_3_depthwise_BN/FusedBatchNormV3;model_1/block_3_depthwise/depthwise i1 [1, 3, 3, 48]
0	0x48	72
1	0xa6	-90
2	0x60	96
3	0x46	70
4	0x35	53
5	0xde	-34
6	0x6b	107
7	0xc1	-63
8	0x3b	59
9	0xa5	-91
10	0xaf	-81
11	0x30	48
12	0x35	53
13	0xd5	-43
14	0xb6	-74
15	0xa6	-90
16	0x66	102
17	0x50	80
18	0x32	50
19	0x50	80
20	0x44	68
21	0xb6	-74
22	0xaf	-81
23	0x34	52
24	0xdd	-35
25	0xd8	-40
26	0xc0	-64
27	0xc0	-64
28	0xbd	-67
29	0x3c	60
30	0xc3	-61
31	0x8e	-114
32	0xf3	-13
33	0x28	40
34	0x46	70
35	0x40	64
36	0xc1	-63
37	0x35	53
38	0xcc	-52
39	0xe9	-23
40	0x34	52
41	0xb4	-76
42	0x3a	58
43	0x41	65
44	0xa5	-91
45	0x0a	10
46	0x4c	76
47	0xe1	-31
48	0x55	85
49	0xa0	-96
50	0x7f	127
51	0x56	86
52	0xb4	-76
53	0xbc	-68
54	0xc7	-57
55	0xaa	-86
56	0x64	100
57	0x97	-105
58	0xc2	-62
59	0x4b	75
60	0x50	80
61	0x93	-109
62	0xa1	-95
63	0x5c	92
64	0xd9	-39
65	0x5f	95
66	0x54	84
67	0x7f	127
68	0x53	83
69	0x8c	-116
70	0x34	52
71	0x48	72
72	0xcc	-52
73	0xb4	-76
74	0xba	-70
75	0xb1	-79
76	0x35	53
77	0x4e	78
78	0xe3	-29
79	0x81	-127
80	0xad	-83
81	0x4e	78
82	0x52	82
83	0x54	84
84	0xaf	-81
85	0x53	83
86	0xad	-83
87	0xf2	-14
88	0x4c	76
89	0xa1	-95
90	0x51	81
91	0x5a	90
92	0xb8	-72
93	0x81	-127
94	0x5e	94
95	0x9a	-102
96	0x22	34
97	0xd4	-44
98	0x47	71
99	0x28	40
100	0x12	18
101	0xd6	-42
102	0xd1	-47
103	0xd9	-39
104	0x2c	44
105	0xdf	-33
106	0x04	4
107	0x24	36
108	0x1e	30
109	0xaf	-81
110	0xcb	-53
111	0xff	-1
112	0xc6	-58
113	0x28	40
114	0x24	36
115	0x47	71
116	0x1f	31
117	0xc9	-55
118	0x1f	31
119	0x1a	26
120	0xe6	-26
121	0xd3	-45
122	0xd3	-45
123	0xe8	-24
124	0x1f	31
125	0x1e	30
126	0x56	86
127	0xa6	-90
128	0xaf	-81
129	0x2d	45
130	0x22	34
131	0x22	34
132	0xe2	-30
133	0x29	41
134	0xd9	-39
135	0xf6	-10
136	0x29	41
137	0xd5	-43
138	0x22	34
139	0x2c	44
140	0xfa	-6
141	0xf7	-9
142	0x25	37
143	0xb8	-72
144	0x60	96
145	0x8f	-113
146	0xd6	-42
147	0x5e	94
148	0x37	55
149	0xae	-82
150	0x7f	127
151	0xa6	-90
152	0x56	86
153	0x89	-119
154	0xb6	-74
155	0x53	83
156	0x56	86
157	0x91	-111
158	0xf2	-14
159	0x81	-127
160	0x7f	127
161	0x6f	111
162	0x4a	74
163	0xd9	-39
164	0x54	84
165	0x6c	108
166	0x81	-127
167	0x49	73
168	0x4b	75
169	0xb4	-76
170	0xa2	-94
171	0x9d	-99
172	0x81	-127
173	0x55	85
174	0xbb	-69
175	0xf7	-9
176	0xa8	-88
177	0x46	70
178	0x6b	107
179	0x62	98
180	0xac	-84
181	0x4f	79
182	0xae	-82
183	0x58	88
184	0x55	85
185	0x9a	-102
186	0x59	89
187	0x5d	93
188	0xaa	-86
189	0x68	104
190	0x5f	95
191	0xa3	-93
192	0x7f	127
193	0x81	-127
194	0xc0	-64
195	0x7f	127
196	0x81	-127
197	0x81	-127
198	0xa4	-92
199	0x81	-127
200	0x7f	127
201	0x81	-127
202	0x81	-127
203	0x7f	127
204	0x7f	127
205	0x81	-127
206	0xe9	-23
207	0x5f	95
208	0xbc	-68
209	0x7f	127
210	0x7f	127
211	0xcc	-52
212	0x7f	127
213	0x7f	127
214	0x43	67
215	0x7f	127
216	0x7f	127
217	0x81	-127
218	0x81	-127
219	0x81	-127
220	0x32	50
221	0x7f	127
222	0xe5	-27
223	0x11	17
224	0x81	-127
225	0x7f	127
226	0x7f	127
227	0x7f	127
228	0x81	-127
229	0x7f	127
230	0x81	-127
231	0x7f	127
232	0x7f	127
233	0x81	-127
234	0x7f	127
235	0x7f	127
236	0x81	-127
237	0xf3	-13
238	0x7f	127
239	0x81	-127
240	0x40	64
241	0xb2	-78
242	0xdf	-33
243	0x42	66
244	0x24	36
245	0xc3	-61
246	0xd0	-48
247	0xc2	-62
248	0x38	56
249	0xd4	-44
250	0xc4	-60
251	0x3d	61
252	0x32	50
253	0xca	-54
254	0xf0	-16
255	0x08	8

model_1/block_3_expand/Conv2D i1 [48, 1, 1, 8]
0	0x81	-127
1	0xfd	-3
2	0x08	8
3	0x49	73
4	0xd6	-42
5	0x28	40
6	0x18	24
7	0xdc	-36
8	0x20	32
9	0x4d	77
10	0x3c	60
11	0x13	19
12	0x08	8
13	0xc2	-62
14	0x72	114
15	0x7f	127
16	0xdc	-36
17	0xf0	-16
18	0x02	2
19	0xfb	-5
20	0x81	-127
21	0x05	5
22	0x06	6
23	0xf7	-9
24	0x51	81
25	0xf4	-12
26	0x06	6
27	0x81	-127
28	0x81	-127
29	0x0f	15
30	0x21	33
31	0xe7	-25
32	0x81	-127
33	0x37	55
34	0x0b	11
35	0xf1	-15
36	0x3b	59
37	0xdd	-35
38	0x20	32
39	0x03	3
40	0xa7	-89
41	0xe6	-26
42	0x12	18
43	0xf7	-9
44	0x81	-127
45	0x09	9
46	0x0c	12
47	0x4f	79
48	0xf8	-8
49	0x81	-127
50	0x05	5
51	0xf2	-14
52	0x06	6
53	0x03	3
54	0xfd	-3
55	0x22	34
56	0xc0	-64
57	0xf6	-10
58	0x08	8
59	0x6c	108
60	0x7f	127
61	0xd6	-42
62	0xc7	-57
63	0x01	1
64	0x5b	91
65	0xf3	-13
66	0xfa	-6
67	0x81	-127
68	0xef	-17
69	0x06	6
70	0xde	-34
71	0xd5	-43
72	0xe9	-23
73	0x81	-127
74	0xf9	-7
75	0x06	6
76	0x09	9
77	0x58	88
78	0xc1	-63
79	0x5b	91
80	0xbd	-67
81	0x07	7
82	0x02	2
83	0x0e	14
84	0x81	-127
85	0x40	64
86	0x2d	45
87	0xdd	-35
88	0x65	101
89	0x15	21
90	0x2b	43
91	0x11	17
92	0xc7	-57
93	0xcd	-51
94	0xe6	-26
95	0x81	-127
96	0xfc	-4
97	0x12	18
98	0x2c	44
99	0xf5	-11
100	0x0e	14
101	0xbd	-67
102	0x7f	127
103	0x38	56
104	0x35	53
105	0xed	-19
106	0xfe	-2
107	0xe9	-23
108	0x71	113
109	0x7f	127
110	0x55	85
111	0xc8	-56
112	0x5a	90
113	0x0e	14
114	0xe2	-30
115	0x0f	15
116	0x81	-127
117	0x0f	15
118	0xd4	-44
119	0x00	0
120	0xed	-19
121	0x81	-127
122	0x07	7
123	0xf2	-14
124	0xf9	-7
125	0x0d	13
126	0x08	8
127	0x21	33
128	0xc5	-59
129	0xe5	-27
130	0xef	-17
131	0xf8	-8
132	0x81	-127
133	0x0c	12
134	0x08	8
135	0x09	9
136	0xee	-18
137	0x53	83
138	0x8e	-114
139	0x09	9
140	0x0c	12
141	0x81	-127
142	0x58	88
143	0xb7	-73
144	0x7f	127
145	0xd4	-44
146	0xcb	-53
147	0x09	9
148	0xb9	-71
149	0x1e	30
150	0x08	8
151	0x79	121
152	0x7f	127
153	0xd3	-45
154	0xf1	-15
155	0xfb	-5
156	0x29	41
157	0xfe	-2
158	0x22	34
159	0xfe	-2
160	0x7f	127
161	0x1a	26
162	0xf4	-12
163	0x66	102
164	0x04	4
165	0x2c	44
166	0x08	8
167	0xcb	-53
168	0x02	2
169	0x28	40
170	0xca	-54
171	0x04	4
172	0xf1	-15
173	0x50	80
174	0x81	-127
175	0xa7	-89
176	0x81	-127
177	0x1d	29
178	0x08	8
179	0x07	7
180	0xd9	-39
181	0x03	3
182	0xeb	-21
183	0x04	4
184	0xd0	-48
185	0xc7	-57
186	0x08	8
187	0x14	20
188	0x81	-127
189	0x3e	62
190	0x50	80
191	0xf2	-14
192	0x7f	127
193	0xd7	-41
194	0xe2	-30
195	0xff	-1
196	0x83	-125
197	0xff	-1
198	0x02	2
199	0x24	36
200	0x22	34
201	0xed	-19
202	0xfd	-3
203	0xef	-17
204	0x7f	127
205	0x3a	58
206	0x38	56
207	0xd8	-40
208	0x15	21
209	0xbe	-66
210	0x01	1
211	0xe0	-32
212	0x0f	15
213	0x81	-127
214	0x51	81
215	0xce	-50
216	0xef	-17
217	0x81	-127
218	0x1c	28
219	0xee	-18
220	0xfc	-4
221	0xd1	-47
222	0x1f	31
223	0xfa	-6
224	0xa7	-89
225	0x12	18
226	0x09	9
227	0x0f	15
228	0xe0	-32
229	0xef	-17
230	0x7f	127
231	0x39	57
232	0xf7	-9
233	0x38	56
234	0x04	4
235	0x00	0
236	0x0d	13
237	0x29	41
238	0x8c	-116
239	0x81	-127
240	0x7f	127
241	0xbd	-67
242	0xfe	-2
243	0xf9	-7
244	0x9d	-99
245	0x1e	30
246	0xb5	-75
247	0xd1	-47
248	0xfd	-3
249	0xe9	-23
250	0x54	84
251	0xe5	-27
252	0xfe	-2
253	0x81	-127
254	0x7b	123
255	0x34	52

model_1/block_2_project/Conv2D i1 [8, 1, 1, 48]
0	0xda	-38
1	0xe8	-24
2	0xd3	-45
3	0x09	9
4	0x0f	15
5	0xdc	-36
6	0xf8	-8
7	0xf4	-12
8	0x8d	-115
9	0x64	100
10	0xd2	-46
11	0x6c	108
12	0x72	114
13	0x06	6
14	0x60	96
15	0xd8	-40
16	0xfb	-5
17	0xd5	-43
18	0x03	3
19	0x00	0
20	0x18	24
21	0xf0	-16
22	0xe0	-32
23	0xde	-34
24	0x16	22
25	0x95	-107
26	0x13	19
27	0x3d	61
28	0xf2	-14
29	0x0d	13
30	0x13	19
31	0xd2	-46
32	0xf5	-11
33	0xc9	-55
34	0x7f	127
35	0x0f	15
36	0x02	2
37	0xfa	-6
38	0x08	8
39	0xe4	-28
40	0x71	113
41	0x0c	12
42	0x2d	45
43	0xe5	-27
44	0xe5	-27
45	0x0f	15
46	0xee	-18
47	0xf0	-16
48	0xfe	-2
49	0x1f	31
50	0x7f	127
51	0x06	6
52	0xf7	-9
53	0xd6	-42
54	0x02	2
55	0xb4	-76
56	0x1f	31
57	0x07	7
58	0x19	25
59	0x09	9
60	0xe8	-24
61	0x03	3
62	0xfa	-6
63	0x91	-111
64	0x0b	11
65	0xc5	-59
66	0x06	6
67	0xfd	-3
68	0xe1	-31
69	0x21	33
70	0x1b	27
71	0xde	-34
72	0xec	-20
73	0xf9	-7
74	0x1b	27
75	0x04	4
76	0x0e	14
77	0x10	16
78	0x1b	27
79	0xf6	-10
80	0x08	8
81	0x0b	11
82	0x1a	26
83	0x0f	15
84	0xe1	-31
85	0xe4	-28
86	0x4f	79
87	0xcb	-53
88	0x10	16
89	0x32	50
90	0xf0	-16
91	0x20	32
92	0xef	-17
93	0x0b	11
94	0x1b	27
95	0xfc	-4
96	0x08	8
97	0xcd	-51
98	0x0c	12
99	0xd8	-40
100	0x1c	28
101	0x1a	26
102	0xfa	-6
103	0xe2	-30
104	0x04	4
105	0xfd	-3
106	0xf7	-9
107	0x12	18
108	0xf0	-16
109	0x34	52
110	0x0e	14
111	0x01	1
112	0xda	-38
113	0x7f	127
114	0xea	-22
115	0xe3	-29
116	0xf1	-15
117	0x19	25
118	0xdc	-36
119	0xf3	-13
120	0x73	115
121	0x01	1
122	0x07	7
123	0xfb	-5
124	0xe3	-29
125	0xfc	-4
126	0x04	4
127	0xdb	-37
128	0xf6	-10
129	0xf3	-13
130	0xfd	-3
131	0x06	6
132	0xfa	-6
133	0xfc	-4
134	0xf1	-15
135	0xfb	-5
136	0x18	24
137	0xf1	-15
138	0xf9	-7
139	0xfe	-2
140	0x03	3
141	0x17	23
142	0xde	-34
143	0xdc	-36
144	0x01	1
145	0xad	-83
146	0xfb	-5
147	0x09	9
148	0xff	-1
149	0xf7	-9
150	0xf3	-13
151	0x00	0
152	0xf6	-10
153	0xfd	-3
154	0x0a	10
155	0x20	32
156	0x05	5
157	0xf7	-9
158	0x31	49
159	0x04	4
160	0xf8	-8
161	0xf0	-16
162	0x02	2
163	0x16	22
164	0xf8	-8
165	0x15	21
166	0xe5	-27
167	0x0a	10
168	0x07	7
169	0x36	54
170	0x0c	12
171	0x07	7
172	0xfa	-6
173	0x08	8
174	0x7f	127
175	0x00	0
176	0x0a	10
177	0x06	6
178	0x0c	12
179	0xfd	-3
180	0xe2	-30
181	0xf1	-15
182	0xfa	-6
183	0x0c	12
184	0xf5	-11
185	0x04	4
186	0xfb	-5
187	0x18	24
188	0xf4	-12
189	0xfc	-4
190	0x00	0
191	0x1e	30
192	0x96	-106
193	0x02	2
194	0x0b	11
195	0xfe	-2
196	0x02	2
197	0xcb	-53
198	0x02	2
199	0x01	1
200	0x2c	44
201	0xd9	-39
202	0x15	21
203	0xee	-18
204	0xdb	-37
205	0xfe	-2
206	0xfb	-5
207	0xf3	-13
208	0xfa	-6
209	0x06	6
210	0x0f	15
211	0x23	35
212	0x11	17
213	0xd7	-41
214	0x05	5
215	0x02	2
216	0xf2	-14
217	0x39	57
218	0x04	4
219	0x6e	110
220	0x04	4
221	0xfe	-2
222	0xf2	-14
223	0xdf	-33
224	0x01	1
225	0x81	-127
226	0xed	-19
227	0x08	8
228	0x04	4
229	0x02	2
230	0x05	5
231	0xf9	-7
232	0xc5	-59
233	0x05	5
234	0xf9	-7
235	0x12	18
236	0xbc	-68
237	0x0b	11
238	0x07	7
239	0x0c	12
240	0xe2	-30
241	0x20	32
242	0x12	18
243	0x07	7
244	0xd6	-42
245	0x03	3
246	0x05	5
247	0x2d	45
248	0x13	19
249	0xf8	-8
250	0x06	6
251	0x0a	10
252	0xf9	-7
253	0xde	-34
254	0x0d	13
255	0x22	34

model_1/block_2_depthwise_BN/FusedBatchNormV3;model_1/block_2_depthwise/depthwise;model_1/block_3_depthwise/depthwise i1 [1, 3, 3, 48]
0	0x04	4
1	0xfd	-3
2	0x15	21
3	0x6d	109
4	0x04	4
5	0x4e	78
6	0xff	-1
7	0x1c	28
8	0x12	18
9	0x07	7
10	0x0a	10
11	0x08	8
12	0xf8	-8
13	0xf7	-9
14	0xd5	-43
15	0x08	8
16	0xff	-1
17	0x08	8
18	0xe8	-24
19	0x8e	-114
20	0xf9	-7
21	0xe9	-23
22	0x7f	127
23	0xf7	-9
24	0xfe	-2
25	0x08	8
26	0xfa	-6
27	0x0a	10
28	0xfb	-5
29	0x06	6
30	0x0f	15
31	0x62	98
32	0x14	20
33	0x1c	28
34	0x27	39
35	0xe6	-26
36	0x02	2
37	0x24	36
38	0xfe	-2
39	0x03	3
40	0x11	17
41	0xbd	-67
42	0xf8	-8
43	0xf6	-10
44	0x11	17
45	0x02	2
46	0xf9	-7
47	0xf7	-9
48	0x7f	127
49	0x0a	10
50	0x0f	15
51	0x81	-127
52	0x1c	28
53	0x55	85
54	0x0b	11
55	0x0a	10
56	0x7f	127
57	0x7f	127
58	0x07	7
59	0x2c	44
60	0xcb	-53
61	0xe8	-24
62	0x04	4
63	0x08	8
64	0x7f	127
65	0xc8	-56
66	0xc5	-59
67	0xc9	-55
68	0x9d	-99
69	0x18	24
70	0x92	-110
71	0x0f	15
72	0x11	17
73	0x48	72
74	0xe1	-31
75	0xad	-83
76	0x16	22
77	0x16	22
78	0x0a	10
79	0x86	-122
80	0x06	6
81	0xc4	-60
82	0x7f	127
83	0x0a	10
84	0xd8	-40
85	0xd2	-46
86	0xfc	-4
87	0x74	116
88	0xb0	-80
89	0xa2	-94
90	0xe1	-31
91	0x04	4
92	0xdf	-33
93	0xf6	-10
94	0x81	-127
95	0x17	23
96	0xe1	-31
97	0xfc	-4
98	0x08	8
99	0x0f	15
100	0x00	0
101	0x3f	63
102	0x03	3
103	0x11	17
104	0x1c	28
105	0x08	8
106	0xf1	-15
107	0x1f	31
108	0xf3	-13
109	0xfc	-4
110	0x11	17
111	0x03	3
112	0x9a	-102
113	0x1d	29
114	0xfd	-3
115	0x4c	76
116	0xe1	-31
117	0xf3	-13
118	0xee	-18
119	0xfb	-5
120	0xfb	-5
121	0xc3	-61
122	0xfc	-4
123	0x1f	31
124	0xf0	-16
125	0x06	6
126	0x03	3
127	0xec	-20
128	0x08	8
129	0xea	-22
130	0x11	17
131	0xed	-19
132	0x00	0
133	0x30	48
134	0x29	41
135	0xf5	-11
136	0x32	50
137	0x29	41
138	0xef	-17
139	0x0c	12
140	0xd5	-43
141	0x02	2
142	0xff	-1
143	0xfa	-6
144	0x7c	124
145	0x07	7
146	0x01	1
147	0x9e	-98
148	0x0e	14
149	0xe4	-28
150	0x23	35
151	0xf0	-16
152	0x0c	12
153	0x09	9
154	0xf4	-12
155	0x37	55
156	0xfa	-6
157	0xff	-1
158	0x13	19
159	0xdf	-33
160	0x00	0
161	0xcf	-49
162	0xc3	-61
163	0xaa	-86
164	0x0b	11
165	0xb6	-74
166	0x82	-126
167	0xee	-18
168	0x05	5
169	0x64	100
170	0xf2	-14
171	0x81	-127
172	0xf8	-8
173	0x23	35
174	0x0d	13
175	0x95	-107
176	0x12	18
177	0xcb	-53
178	0xfe	-2
179	0x7f	127
180	0xfd	-3
181	0x3b	59
182	0xd6	-42
183	0x29	41
184	0xc0	-64
185	0x81	-127
186	0x27	39
187	0xa8	-88
188	0xd3	-45
189	0xf3	-13
190	0xf3	-13
191	0xfc	-4
192	0x1b	27
193	0x81	-127
194	0x81	-127
195	0x74	116
196	0x81	-127
197	0x81	-127
198	0x81	-127
199	0x81	-127
200	0x83	-125
201	0xa0	-96
202	0x7f	127
203	0x81	-127
204	0x7f	127
205	0x7f	127
206	0x22	34
207	0x81	-127
208	0xad	-83
209	0x7f	127
210	0x7f	127
211	0x96	-106
212	0x7f	127
213	0x7f	127
214	0x6f	111
215	0x7f	127
216	0x7f	127
217	0x81	-127
218	0x81	-127
219	0x1e	30
220	0x81	-127
221	0x81	-127
222	0x5f	95
223	0x7f	127
224	0x81	-127
225	0x7f	127
226	0xe2	-30
227	0xd7	-41
228	0x7f	127
229	0x81	-127
230	0x7f	127
231	0x7f	127
232	0x7f	127
233	0xb4	-76
234	0x7f	127
235	0x7f	127
236	0x7f	127
237	0x85	-123
238	0x65	101
239	0x6b	107
240	0x36	54
241	0x04	4
242	0x31	49
243	0xf3	-13
244	0x06	6
245	0xc2	-62
246	0x2c	44
247	0x11	17
248	0xe9	-23
249	0x0f	15
250	0x98	-104
251	0xf9	-7
252	0x03	3
253	0xd7	-41
254	0x7f	127
255	0x03	3

model_1/block_2_expand/Conv2D i1 [48, 1, 1, 8]
0	0x4e	78
1	0x1a	26
2	0x0e	14
3	0xef	-17
4	0x7f	127
5	0x1d	29
6	0xbd	-67
7	0xea	-22
8	0xfe	-2
9	0x02	2
10	0x05	5
11	0x7f	127
12	0x05	5
13	0xf7	-9
14	0x08	8
15	0x13	19
16	0x1a	26
17	0x81	-127
18	0xe8	-24
19	0x26	38
20	0xfc	-4
21	0xb2	-78
22	0x54	84
23	0x11	17
24	0x7f	127
25	0xf1	-15
26	0xfe	-2
27	0x18	24
28	0xfb	-5
29	0xe9	-23
30	0x1f	31
31	0xf1	-15
32	0x0d	13
33	0xc8	-56
34	0x7f	127
35	0xf8	-8
36	0xf6	-10
37	0xe0	-32
38	0x19	25
39	0xa2	-94
40	0x41	65
41	0xeb	-21
42	0xff	-1
43	0xf3	-13
44	0x7f	127
45	0x0b	11
46	0xe2	-30
47	0xfa	-6
48	0x09	9
49	0x57	87
50	0xfe	-2
51	0x7f	127
52	0x13	19
53	0x37	55
54	0xad	-83
55	0xc2	-62
56	0xfb	-5
57	0x7f	127
58	0xfb	-5
59	0x08	8
60	0xf4	-12
61	0xf1	-15
62	0x09	9
63	0xfa	-6
64	0x7f	127
65	0x30	48
66	0x07	7
67	0x1d	29
68	0xb3	-77
69	0xda	-38
70	0xea	-22
71	0xe9	-23
72	0x81	-127
73	0x12	18
74	0x0c	12
75	0x1c	28
76	0x44	68
77	0x13	19
78	0x08	8
79	0xf6	-10
80	0xbc	-68
81	0xfe	-2
82	0x06	6
83	0x7f	127
84	0x24	36
85	0x1d	29
86	0xf1	-15
87	0xf8	-8
88	0x81	-127
89	0x0a	10
90	0x02	2
91	0xb3	-77
92	0x2b	43
93	0xfd	-3
94	0xf0	-16
95	0xd7	-41
96	0x7f	127
97	0x0c	12
98	0xf5	-11
99	0x16	22
100	0xbd	-67
101	0xfb	-5
102	0x0c	12
103	0xd1	-47
104	0xf6	-10
105	0x56	86
106	0x81	-127
107	0xf8	-8
108	0x01	1
109	0x64	100
110	0xb0	-80
111	0x52	82
112	0xa1	-95
113	0xf0	-16
114	0xe9	-23
115	0x7f	127
116	0x1b	27
117	0x14	20
118	0x17	23
119	0xe5	-27
120	0xf7	-9
121	0x7f	127
122	0xff	-1
123	0xfc	-4
124	0x06	6
125	0xf4	-12
126	0x0b	11
127	0xca	-54
128	0xee	-18
129	0x81	-127
130	0xe9	-23
131	0xf8	-8
132	0xfc	-4
133	0xa2	-94
134	0x68	104
135	0xef	-17
136	0x14	20
137	0x7f	127
138	0xfc	-4
139	0xf4	-12
140	0x02	2
141	0x3f	63
142	0xaa	-86
143	0xee	-18
144	0xf2	-14
145	0x30	48
146	0x81	-127
147	0xfc	-4
148	0x05	5
149	0x3a	58
150	0xeb	-21
151	0x3a	58
152	0xa0	-96
153	0x03	3
154	0x04	4
155	0xf5	-11
156	0x81	-127
157	0x05	5
158	0xee	-18
159	0x1e	30
160	0x81	-127
161	0xe3	-29
162	0x04	4
163	0xff	-1
164	0x50	80
165	0xe8	-24
166	0x1a	26
167	0x08	8
168	0xce	-50
169	0xef	-17
170	0x0d	13
171	0x05	5
172	0x81	-127
173	0x11	17
174	0x01	1
175	0xf7	-9
176	0x81	-127
177	0xe3	-29
178	0x02	2
179	0xfb	-5
180	0x3c	60
181	0x05	5
182	0x20	32
183	0x23	35
184	0xe9	-23
185	0xef	-17
186	0xf5	-11
187	0xfb	-5
188	0x01	1
189	0x4b	75
190	0x81	-127
191	0xa3	-93
192	0xf6	-10
193	0x2e	46
194	0x81	-127
195	0xff	-1
196	0x07	7
197	0x33	51
198	0xf0	-16
199	0x4d	77
200	0x5e	94
201	0xde	-34
202	0x05	5
203	0x7f	127
204	0xad	-83
205	0xf6	-10
206	0x14	20
207	0xde	-34
208	0x01	1
209	0xed	-19
210	0x00	0
211	0xfc	-4
212	0xea	-22
213	0x7f	127
214	0x76	118
215	0xe1	-31
216	0x33	51
217	0xfc	-4
218	0xfc	-4
219	0x01	1
220	0x7f	127
221	0x13	19
222	0x0a	10
223	0xeb	-21
224	0x05	5
225	0x73	115
226	0xc0	-64
227	0x04	4
228	0x0c	12
229	0x51	81
230	0xe6	-26
231	0x7f	127
232	0x02	2
233	0x04	4
234	0x02	2
235	0xfe	-2
236	0xfa	-6
237	0x49	73
238	0x81	-127
239	0xbc	-68
240	0x00	0
241	0xfd	-3
242	0x00	0
243	0x81	-127
244	0xfa	-6
245	0xf7	-9
246	0xf5	-11
247	0xf4	-12
248	0xbb	-69
249	0x00	0
250	0x0d	13
251	0x0c	12
252	0x81	-127
253	0x19	25
254	0x2a	42
255	0xff	-1

model_1/block_1_project/Conv2D i1 [8, 1, 1, 48]
0	0xf2	-14
1	0x00	0
2	0x06	6
3	0x9b	-101
4	0x09	9
5	0x1c	28
6	0x09	9
7	0x09	9
8	0x03	3
9	0xfc	-4
10	0x03	3
11	0x01	1
12	0x6e	110
13	0x00	0
14	0x01	1
15	0x04	4
16	0x00	0
17	0xfe	-2
18	0xfa	-6
19	0x02	2
20	0x51	81
21	0x02	2
22	0xf8	-8
23	0x05	5
24	0x20	32
25	0x33	51
26	0x0c	12
27	0x0a	10
28	0x02	2
29	0x04	4
30	0x0a	10
31	0x81	-127
32	0x09	9
33	0x04	4
34	0x01	1
35	0x03	3
36	0xe2	-30
37	0xfa	-6
38	0xfd	-3
39	0x20	32
40	0x08	8
41	0xe5	-27
42	0xfc	-4
43	0x07	7
44	0x01	1
45	0xfd	-3
46	0x03	3
47	0x06	6
48	0xd9	-39
49	0xf6	-10
50	0xfc	-4
51	0xfc	-4
52	0x2d	45
53	0x1e	30
54	0xd9	-39
55	0x52	82
56	0x13	19
57	0x05	5
58	0xe8	-24
59	0xe6	-26
60	0x0c	12
61	0x00	0
62	0x15	21
63	0x2a	42
64	0x00	0
65	0x2b	43
66	0x14	20
67	0xd3	-45
68	0x02	2
69	0x19	25
70	0x7f	127
71	0x14	20
72	0xe0	-32
73	0x01	1
74	0x3c	60
75	0x02	2
76	0x14	20
77	0xf5	-11
78	0x11	17
79	0xf6	-10
80	0x0b	11
81	0xf6	-10
82	0xf9	-7
83	0xed	-19
84	0x05	5
85	0xbe	-66
86	0x0d	13
87	0x07	7
88	0xfa	-6
89	0xf5	-11
90	0xa3	-93
91	0xf6	-10
92	0xd1	-47
93	0x08	8
94	0xc7	-57
95	0xa3	-93
96	0xc4	-60
97	0x09	9
98	0xfb	-5
99	0x08	8
100	0x28	40
101	0xfa	-6
102	0x17	23
103	0x14	20
104	0xf6	-10
105	0x3d	61
106	0x0b	11
107	0xf4	-12
108	0x09	9
109	0x00	0
110	0xff	-1
111	0x31	49
112	0x00	0
113	0x09	9
114	0x81	-127
115	0x19	25
116	0x08	8
117	0x0e	14
118	0x02	2
119	0xf0	-16
120	0xe4	-28
121	0x09	9
122	0x28	40
123	0x06	6
124	0x06	6
125	0x19	25
126	0x16	22
127	0x0a	10
128	0x0b	11
129	0xfc	-4
130	0xef	-17
131	0xf4	-12
132	0x09	9
133	0xff	-1
134	0x0a	10
135	0x07	7
136	0x29	41
137	0xf4	-12
138	0xdc	-36
139	0x01	1
140	0x18	24
141	0xca	-54
142	0x1c	28
143	0x14	20
144	0x00	0
145	0x01	1
146	0xfd	-3
147	0x06	6
148	0xfc	-4
149	0x1d	29
150	0x04	4
151	0xfc	-4
152	0x41	65
153	0x0c	12
154	0xfb	-5
155	0x01	1
156	0x15	21
157	0x00	0
158	0xe5	-27
159	0xff	-1
160	0x00	0
161	0x03	3
162	0xf7	-9
163	0x00	0
164	0xfd	-3
165	0x02	2
166	0x08	8
167	0xf7	-9
168	0xf6	-10
169	0xf8	-8
170	0xf5	-11
171	0x03	3
172	0xf3	-13
173	0xff	-1
174	0xfd	-3
175	0xf5	-11
176	0xd6	-42
177	0x2b	43
178	0xcf	-49
179	0xff	-1
180	0x01	1
181	0xfc	-4
182	0x06	6
183	0x81	-127
184	0xff	-1
185	0x06	6
186	0x04	4
187	0xd6	-42
188	0x02	2
189	0xfb	-5
190	0x01	1
191	0x05	5
192	0xff	-1
193	0xfb	-5
194	0x55	85
195	0x1e	30
196	0xff	-1
197	0xf2	-14
198	0x00	0
199	0xfb	-5
200	0x03	3
201	0xf9	-7
202	0x04	4
203	0xf9	-7
204	0xae	-82
205	0x00	0
206	0xf6	-10
207	0x06	6
208	0x00	0
209	0x05	5
210	0x05	5
211	0x03	3
212	0x44	68
213	0x04	4
214	0xfd	-3
215	0xfc	-4
216	0xf1	-15
217	0x23	35
218	0xfe	-2
219	0x22	34
220	0xf2	-14
221	0xfa	-6
222	0x01	1
223	0x62	98
224	0x03	3
225	0x05	5
226	0xfe	-2
227	0xfc	-4
228	0x07	7
229	0xee	-18
230	0xfc	-4
231	0xed	-19
232	0xfc	-4
233	0x81	-127
234	0x07	7
235	0xfc	-4
236	0xfd	-3
237	0xfd	-3
238	0x00	0
239	0x05	5
240	0xfb	-5
241	0x2b	43
242	0x04	4
243	0xf7	-9
244	0x04	4
245	0x2a	42
246	0x1b	27
247	0x0c	12
248	0xea	-22
249	0x1e	30
250	0x05	5
251	0x39	57
252	0x1d	29
253	0x00	0
254	0x81	-127
255	0xfc	-4
