DETECCION OBJETOS/TFLITE/ei-transito-v2-openmv-v2/trainedv2.tflite (tflite, 56792 bytes, 21 tensors)

model_1/logits/Conv2D i1 [6, 1, 1, 32]
25 43 -47 -63 -30 -13 -6 32
-18 10 -10 58 -80 -50 57 -11
1 -31 -6 -63 -2 46 6 -38
-74 -47 -50 -24 127 -10 -73 -70
70 -87 -6 -27 115 0 -64 41
93 -46 -104 30 27 -4 -127 11
3 5 -75 -74 -13 66 -1 -98
74 -26 127 -2 -92 32 -71 105
-54 -96 74 -56 92 127 -114 83
-78 16 70 -72 95 -14 -26 99
35 3 -99 -39 80 96 -109 1
-125 43 -95 -29 -1 46 -18 -96
68 -66 15 26 40 -39 -103 32
65 85 -22 -112 102 8 -23 -17
85 61 73 -76 44 -53 -108 71
-44 127 -91 18 -39 -23 47 87
-27 20 127 -6 -40 -66 100 -45
-48 -92 25 28 26 -13 -113 -33
17 92 85 23 5 125 81 -29
38 -48 8 47 -73 -78 53 22
86 81 -35 119 49 5 -81 122
-59 -120 124 -117 -45 -119 -95 -35
-79 -83 -26 127 -15 21 23 35
110 -61 -27 91 7 67 -60 -18
00000000: 192b d1c1 e2f3 fa20 ee0a f63a b0ce 39f5
00000010: 01e1 fac1 fe2e 06da b6d1 cee8 7ff6 b7ba
00000020: 46a9 fae5 7300 c029 5dd2 981e 1bfc 810b
00000030: 0305 b5b6 f342 ff9e 4ae6 7ffe a420 b969
00000040: caa0 4ac8 5c7f 8e53 b210 46b8 5ff2 e663
00000050: 2303 9dd9 5060 9301 832b a1e3 ff2e eea0
00000060: 44be 0f1a 28d9 9920 4155 ea90 6608 e9ef
00000070: 553d 49b4 2ccb 9447 d47f a512 d9e9 2f57
00000080: e514 7ffa d8be 64d3 d0a4 191c 1af3 8fdf
00000090: 115c 5517 057d 51e3 26d0 082f b7b2 3516
000000a0: 5651 dd77 3105 af7a c588 7c8b d389 a1dd
000000b0: b1ad e67f f115 1723 6ec3 e55b 0743 c4ee

model_1/head/Conv2D i1 [32, 1, 1, 96]
-26 -35 84 8 53 -7 -70 -88
70 -101 -87 7 51 23 -23 54
-46 -20 -29 -37 -52 -91 4 108
-112 17 78 -34 115 1 -22 -63
76 -45 -83 44 -108 -58 -73 37
80 -80 -88 96 60 -81 113 -8
26 -35 -32 98 -44 -31 -78 102
30 78 99 -99 -42 63 -38 34
-4 31 67 98 63 86 77 -105
108 -85 38 78 -88 8 -44 52
61 30 98 -6 -44 -33 -65 112
36 126 12 -127 26 73 44 -21
-45 37 -47 11 -44 68 45 32
85 -91 -85 107 53 -17 38 68
101 -32 48 127 -45 7 42 32
48 30 -30 117 26 -2 93 -69
64 102 3 27 56 66 -6 -50
-50 4 -8 -83 -10 42 -20 -34
-11 -60 120 43 22 79 -52 -34
18 81 64 68 -55 125 -84 -67
-63 36 83 50 118 38 -13 2
-101 105 -46 56 70 -38 -26 96
-68 95 -45 -115 33 103 -60 -63
69 88 112 0 80 72 42 5
45 36 -72 88 -13 -60 85 72
-73 70 -27 104 68 -4 80 -101
-55 -13 35 66 -77 -14 88 23
-42 78 98 -2 -51 78 73 101
-63 -6 -89 -127 -107 94 82 -18
-94 -63 22 -12 -62 112 -12 -64
94 60 88 -67 -55 74 31 32
-61 82 -67 -8 1 57 -34 72
00000000: e6dd 5408 35f9 baa8 469b a907 3317 e936
00000010: d2ec e3db cca5 046c 9011 4ede 7301 eac1
00000020: 4cd3 ad2c 94c6 b725 50b0 a860 3caf 71f8
00000030: 1add e062 d4e1 b266 1e4e 639d d63f da22
00000040: fc1f 4362 3f56 4d97 6cab 264e a808 d434
00000050: 3d1e 62fa d4df bf70 247e 0c81 1a49 2ceb
00000060: d325 d10b d444 2d20 55a5 ab6b 35ef 2644
00000070: 65e0 307f d307 2a20 301e e275 1afe 5dbb
00000080: 4066 031b 3842 face ce04 f8ad f62a ecde
00000090: f5c4 782b 164f ccde 1251 4044 c97d acbd
000000a0: c124 5332 7626 f302 9b69 d238 46da e660
000000b0: bc5f d38d 2167 c4c1 4558 7000 5048 2a05
000000c0: 2d24 b858 f3c4 5548 b746 e568 44fc 509b
000000d0: c9f3 2342 b3f2 5817 d64e 62fe cd4e 4965
000000e0: c1fa a781 955e 52ee a2c1 16f4 c270 f4c0
000000f0: 5e3c 58bd c94a 1f20 c352 bdf8 0139 de48

model_1/block_6_expand/Conv2D i1 [96, 1, 1, 16]
-33 77 -12 -127 -50 -29 -50 -51
-35 13 -8 53 21 -53 -37 56
-46 0 -88 -25 -54 -63 9 -110
53 54 -95 -12 15 0 65 -127
1 25 -35 53 25 19 -68 -45
127 -26 43 41 -44 118 -78 16
26 -32 14 -73 -16 -16 -17 9
83 5 43 37 -24 51 20 127
-90 47 22 26 -28 -37 -43 30
-19 5 -12 -50 -127 -19 -4 61
19 73 127 0 40 87 -81 87
-46 79 -16 -28 39 -41 -127 39
21 -62 109 -127 21 5 -91 81
-85 -108 67 -39 -25 95 -28 107
46 111 -15 -56 127 12 -23 -62
108 74 -17 5 40 -13 82 23
3 -90 15 -100 11 -60 -4 -64
12 55 58 -19 13 127 76 57
14 -41 -2 127 47 -12 41 -63
-66 119 37 -27 -2 -61 -7 -5
6 34 -61 -127 22 7 5 34
49 -44 22 -6 3 -80 14 4
8 14 17 -32 82 -40 90 -64
-97 38 -8 27 5 127 -80 -26
33 -24 -87 -39 11 -52 6 11
-6 48 -82 -61 -52 127 -6 54
-15 -1 -18 16 5 -127 -7 5
2 -4 10 1 5 -2 15 13
7 -75 94 -51 65 -19 -127 -120
-24 -19 39 -6 -23 -40 12 -27
-106 25 -3 -30 -8 27 127 58
-15 55 127 8 0 104 48 -31
00000000: df4d f481 cee3 cecd dd0d f835 15cb db38
00000010: d200 a8e7 cac1 0992 3536 a1f4 0f00 4181
00000020: 0119 dd35 1913 bcd3 7fe6 2b29 d476 b210
00000030: 1ae0 0eb7 f0f0 ef09 5305 2b25 e833 147f
00000040: a62f 161a e4db d51e ed05 f4ce 81ed fc3d
00000050: 1349 7f00 2857 af57 d24f f0e4 27d7 8127
00000060: 15c2 6d81 1505 a551 ab94 43d9 e75f e46b
00000070: 2e6f f1c8 7f0c e9c2 6c4a ef05 28f3 5217
00000080: 03a6 0f9c 0bc4 fcc0 0c37 3aed 0d7f 4c39
00000090: 0ed7 fe7f 2ff4 29c1 be77 25e5 fec3 f9fb
000000a0: 0622 c381 1607 0522 31d4 16fa 03b0 0e04
000000b0: 080e 11e0 52d8 5ac0 9f26 f81b 057f b0e6
000000c0: 21e8 a9d9 0bcc 060b fa30 aec3 cc7f fa36
000000d0: f1ff ee10 0581 f905 02fc 0a01 05fe 0f0d
000000e0: 07b5 5ecd 41ed 8188 e8ed 27fa e9d8 0ce5
000000f0: 9619 fde2 f81b 7f3a f137 7f08 0068 30e1

model_1/block_5_project/Conv2D i1 [16, 1, 1, 96]
-11 -27 1 -39 13 -9 -47 9
6 -2 3 -18 -7 -7 -28 0
6 -8 12 -6 10 -22 11 -5
-5 -7 -1 127 28 -36 55 -1
4 12 10 2 -13 17 -42 8
-13 23 6 23 3 6 15 -2
29 1 -6 2 13 -25 -8 74
5 12 -32 -30 -1 19 5 -38
-56 -46 -2 36 -3 17 13 -13
-2 -30 -2 -15 -41 23 -7 0
-21 -22 30 11 -7 -16 0 -88
3 -24 11 -7 52 -37 -40 -28
21 -57 -90 -60 106 -12 53 15
-10 -87 -38 -31 29 -3 -66 27
-31 0 42 19 42 56 -34 -28
5 -40 4 -66 29 -15 -30 55
-22 25 0 22 -2 10 -24 34
-50 39 -29 -48 -16 115 40 -1
17 -69 23 -8 -19 17 43 -2
-73 -18 -48 -21 25 -25 10 -44
-58 85 -1 -15 -8 -35 -10 25
56 -113 -30 -12 -12 -42 28 21
-25 -29 36 8 -49 51 -12 26
31 -39 -21 -10 40 35 45 127
2 68 -95 -19 102 70 55 62
-21 -125 -12 0 -5 0 26 19
-8 -12 -65 85 5 -10 105 11
41 35 1 -76 44 5 22 -60
26 23 -10 12 -127 -102 33 26
17 -45 27 -4 2 -53 -9 72
-5 25 -35 1 75 -16 -36 49
21 1 9 -8 41 41 20 -26
00000000: f5e5 01d9 0df7 d109 06fe 03ee f9f9 e400
00000010: 06f8 0cfa 0aea 0bfb fbf9 ff7f 1cdc 37ff
00000020: 040c 0a02 f311 d608 f317 0617 0306 0ffe
00000030: 1d01 fa02 0de7 f84a 050c e0e2 ff13 05da
00000040: c8d2 fe24 fd11 0df3 fee2 fef1 d717 f900
00000050: ebea 1e0b f9f0 00a8 03e8 0bf9 34db d8e4
00000060: 15c7 a6c4 6af4 350f f6a9 dae1 1dfd be1b
00000070: e100 2a13 2a38 dee4 05d8 04be 1df1 e237
00000080: ea19 0016 fe0a e822 ce27 e3d0 f073 28ff
00000090: 11bb 17f8 ed11 2bfe b7ee d0eb 19e7 0ad4
000000a0: c655 fff1 f8dd f619 388f e2f4 f4d6 1c15
000000b0: e7e3 2408 cf33 f41a 1fd9 ebf6 2823 2d7f
000000c0: 0244 a1ed 6646 373e eb83 f400 fb00 1a13
000000d0: f8f4 bf55 05f6 690b 2923 01b4 2c05 16c4
000000e0: 1a17 f60c 819a 211a 11d3 1bfc 02cb f748
000000f0: fb19 dd01 4bf0 dc31 1501 09f8 2929 14e6

model_1/block_5_depthwise_BN/FusedBatchNormV3;model_1/block_5_depthwise/depthwise;model_1/block_6_expand/Conv2D i1 [1, 3, 3, 96]
-49 -70 -10 127 23 73 76 -56
-13 -20 -16 -8 -28 4 37 2
-12 -45 25 23 17 -127 127 6
-88 11 47 -30 -126 -127 37 24
11 25 60 -16 -30 -12 31 -13
-14 28 -107 76 24 -68 36 48
-18 51 -23 21 3 -8 16 49
-95 -47 -57 -16 -10 -3 12 38
70 -26 77 13 -7 16 18 127
26 27 24 2 -7 18 127 -4
-12 18 -25 21 125 24 -80 -17
1 -31 -16 -36 2 -24 -17 28
127 -126 81 107 -43 127 42 -115
71 3 -19 127 127 -99 -11 15
11 127 127 -112 127 -68 82 69
-127 -105 -69 -34 -49 46 -60 -21
-91 53 -127 -80 -42 -18 -48 60
-1 127 127 88 -52 -111 -111 -49
-15 -127 44 86 65 -33 48 82
-52 41 -80 -110 -42 -45 -63 66
75 -61 31 31 -78 30 -19 89
126 127 12 22 4 59 -34 54
65 126 127 -23 -10 79 -111 127
-114 -103 4 -127 -89 -127 -39 105
-78 -13 35 -83 15 -30 63 -3
83 -36 -29 15 -17 -3 -8 -11
-7 -16 6 -1 -24 -101 33 -3
-116 88 7 -54 127 49 -15 8
-2 16 15 -29 -9 32 23 2
27 12 -119 69 17 -21 36 15
-15 10 -16 6 -11 -2 -2 18
-70 6 -32 52 2 37 33 -5
00000000: cfba f67f 1749 4cc8 f3ec f0f8 e404 2502
00000010: f4d3 1917 1181 7f06 a80b 2fe2 8281 2518
00000020: 0b19 3cf0 e2f4 1ff3 f21c 954c 18bc 2430
00000030: ee33 e915 03f8 1031 a1d1 c7f0 f6fd 0c26
00000040: 46e6 4d0d f910 127f 1a1b 1802 f912 7ffc
00000050: f412 e715 7d18 b0ef 01e1 f0dc 02e8 ef1c
00000060: 7f82 516b d57f 2a8d 4703 ed7f 7f9d f50f
00000070: 0b7f 7f90 7fbc 5245 8197 bbde cf2e c4eb
00000080: a535 81b0 d6ee d03c ff7f 7f58 cc91 91cf
00000090: f181 2c56 41df 3052 cc29 b092 d6d3 c142
000000a0: 4bc3 1f1f b21e ed59 7e7f 0c16 043b de36
000000b0: 417e 7fe9 f64f 917f 8e99 0481 a781 d969
000000c0: b2f3 23ad 0fe2 3ffd 53dc e30f effd f8f5
000000d0: f9f0 06ff e89b 21fd 8c58 07ca 7f31 f108
000000e0: fe10 0fe3 f720 1702 1b0c 8945 11eb 240f
000000f0: f10a f006 f5fe fe12 ba06 e034 0225 21fb

model_1/block_5_expand/Conv2D i1 [96, 1, 1, 16]
62 63 2 113 34 23 0 -10
41 14 -102 124 0 -127 36 -96
19 48 -49 -1 24 -70 125 -127
-10 93 13 -66 21 -54 46 -1
-85 20 -20 -39 -32 -11 15 120
-12 64 127 -19 -59 1 20 -29
-78 36 81 13 -7 86 64 56
21 74 -127 11 37 -86 -53 -43
6 -25 22 77 -18 43 -3 33
6 -13 -8 -17 5 0 -127 -15
-16 -47 63 12 36 -16 -20 15
-60 93 -37 -127 10 64 -56 -23
6 29 20 -6 49 75 -90 -63
-3 -10 59 4 127 -37 -20 -49
-20 -35 127 -23 -14 -26 27 -9
-70 25 -65 -15 38 18 59 -17
53 31 16 50 -38 35 38 4
21 1 48 -116 -2 -23 -107 -127
81 -127 83 42 62 -4 -11 8
82 -12 93 44 -13 -13 -89 -16
-37 -69 16 -6 -93 8 -24 64
105 127 31 -11 -31 80 58 4
10 -31 74 -89 26 -6 -78 -127
-59 89 -14 -30 48 -22 46 -49
-25 -6 18 -49 -37 -35 -89 -35
-106 -83 -30 56 -7 127 74 78
-43 -81 -67 110 28 -57 71 21
127 51 8 13 16 45 102 45
1 -60 -21 18 39 -13 36 98
0 46 8 -46 14 0 -83 127
32 -25 -2 61 27 3 121 -15
2 -127 20 -31 3 -27 4 -30
00000000: 3e3f 0271 2217 00f6 290e 9a7c 0081 24a0
00000010: 1330 cfff 18ba 7d81 f65d 0dbe 15ca 2eff
00000020: ab14 ecd9 e0f5 0f78 f440 7fed c501 14e3
00000030: b224 510d f956 4038 154a 810b 25aa cbd5
00000040: 06e7 164d ee2b fd21 06f3 f8ef 0500 81f1
00000050: f0d1 3f0c 24f0 ec0f c45d db81 0a40 c8e9
00000060: 061d 14fa 314b a6c1 fdf6 3b04 7fdb eccf
00000070: ecdd 7fe9 f2e6 1bf7 ba19 bff1 2612 3bef
00000080: 351f 1032 da23 2604 1501 308c fee9 9581
00000090: 5181 532a 3efc f508 52f4 5d2c f3f3 a7f0
000000a0: dbbb 10fa a308 e840 697f 1ff5 e150 3a04
000000b0: 0ae1 4aa7 1afa b281 c559 f2e2 30ea 2ecf
000000c0: e7fa 12cf dbdd a7dd 96ad e238 f97f 4a4e
000000d0: d5af bd6e 1cc7 4715 7f33 080d 102d 662d
000000e0: 01c4 eb12 27f3 2462 002e 08d2 0e00 ad7f
000000f0: 20e7 fe3d 1b03 79f1 0281 14e1 03e5 04e2

model_1/block_4_project/Conv2D i1 [16, 1, 1, 96]
-3 28 -13 14 45 58 -33 -54
37 2 9 -5 -31 9 20 56
-2 0 -17 -7 94 -43 1 -18
-9 -27 -30 -81 -9 -4 35 41
88 -16 -7 -2 -1 -53 -25 -10
-29 18 5 -26 -3 -20 -8 25
-15 17 18 0 -40 -8 -2 0
27 8 -15 -22 -52 11 -8 -17
6 8 44 0 4 7 -1 -40
-88 0 -12 0 -10 -83 0 -8
13 -26 -54 -41 18 -14 14 33
-9 -20 13 -13 24 14 -10 127
62 -119 47 70 8 -41 -44 -59
-14 -95 -1 23 37 -65 -49 -49
-56 -47 -1 46 -22 -90 -61 58
95 -94 -44 -9 -65 112 -5 89
-6 68 -81 18 16 -87 82 7
41 -80 76 -14 -46 -10 77 -17
54 14 -24 -70 92 -79 66 5
-2 50 -45 -113 29 -54 25 -53
14 -90 18 38 45 21 -27 -3
-127 28 -1 49 13 77 27 28
23 67 -102 2 -89 98 39 67
-64 67 17 31 30 -30 42 -8
26 34 9 -10 -18 2 8 45
59 -20 -5 59 -14 7 42 -5
-26 5 -9 -16 -20 -82 11 -66
4 -8 -31 12 -4 3 122 -62
15 -83 -16 42 10 127 -63 -32
2 -21 0 54 -22 -37 -66 14
27 21 -53 -23 28 -3 -11 -45
-9 10 -16 19 0 10 63 96
00000000: fd1c f30e 2d3a dfca 2502 09fb e109 1438
00000010: fe00 eff9 5ed5 01ee f7e5 e2af f7fc 2329
00000020: 58f0 f9fe ffcb e7f6 e312 05e6 fdec f819
00000030: f111 1200 d8f8 fe00 1b08 f1ea cc0b f8ef
00000040: 0608 2c00 0407 ffd8 a800 f400 f6ad 00f8
00000050: 0de6 cad7 12f2 0e21 f7ec 0df3 180e f67f
00000060: 3e89 2f46 08d7 d4c5 f2a1 ff17 25bf cfcf
00000070: c8d1 ff2e eaa6 c33a 5fa2 d4f7 bf70 fb59
00000080: fa44 af12 10a9 5207 29b0 4cf2 d2f6 4def
00000090: 360e e8ba 5cb1 4205 fe32 d38f 1dca 19cb
000000a0: 0ea6 1226 2d15 e5fd 811c ff31 0d4d 1b1c
000000b0: 1743 9a02 a762 2743 c043 111f 1ee2 2af8
000000c0: 1a22 09f6 ee02 082d 3bec fb3b f207 2afb
000000d0: e605 f7f0 ecae 0bbe 04f8 e10c fc03 7ac2
000000e0: 0fad f02a 0a7f c1e0 02eb 0036 eadb be0e
000000f0: 1b15 cbe9 1cfd f5d3 f70a f013 000a 3f60

model_1/block_4_depthwise_BN/FusedBatchNormV3;model_1/block_4_depthwise/depthwise;model_1/block_6_expand/Conv2D i1 [1, 3, 3, 96]
-19 5 -21 104 -16 21 -63 -52
18 -9 99 -7 5 -8 -6 55
8 13 -27 3 71 1 31 -34
2 16 43 48 21 14 23 52
-6 25 9 -15 3 49 -64 -28
20 8 28 18 -87 -54 26 -6
-13 -21 -6 -6 48 5 -9 1
-4 -36 27 -29 25 -2 127 27
-15 -11 10 -53 65 36 0 -8
77 -33 69 2 17 -125 32 65
2 18 127 -14 38 28 -27 -15
37 -4 -15 80 -3 20 -2 14
-50 11 -9 11 51 -9 -12 -127
38 10 -127 -5 -13 -14 4 92
18 -34 -11 -16 77 -99 127 27
-61 -33 -105 -14 29 37 -50 21
120 10 -13 -1 -27 127 -62 -127
8 -20 -29 14 45 -127 127 -45
-78 50 51 8 40 -63 31 55
35 42 -104 83 127 35 4 -19
43 -40 -97 -3 36 -31 -21 45
-48 -50 103 -5 -29 -59 -31 67
-64 61 -18 7 -12 46 57 -38
-27 52 -14 74 -127 -33 22 -127
-1 -4 -25 -75 9 18 36 21
-4 -2 3 59 2 -13 -12 9
-13 15 -8 16 5 24 24 -31
-1 -33 7 11 -6 9 46 -75
45 13 11 -22 9 5 -37 -23
7 2 -17 9 22 -30 21 0
5 -10 7 -4 6 5 -5 8
-8 44 5 -4 10 -16 2 -13
00000000: ed05 eb68 f015 c1cc 12f7 63f9 05f8 fa37
00000010: 080d e503 4701 1fde 0210 2b30 150e 1734
00000020: fa19 09f1 0331 c0e4 1408 1c12 a9ca 1afa
00000030: f3eb fafa 3005 f701 fcdc 1be3 19fe 7f1b
00000040: f1f5 0acb 4124 00f8 4ddf 4502 1183 2041
00000050: 0212 7ff2 261c e5f1 25fc f150 fd14 fe0e
00000060: ce0b f70b 33f7 f481 260a 81fb f3f2 045c
00000070: 12de f5f0 4d9d 7f1b c3df 97f2 1d25 ce15
00000080: 780a f3ff e57f c281 08ec e30e 2d81 7fd3
00000090: b232 3308 28c1 1f37 232a 9853 7f23 04ed
000000a0: 2bd8 9ffd 24e1 eb2d d0ce 67fb e3c5 e143
000000b0: c03d ee07 f42e 39da e534 f24a 81df 1681
000000c0: fffc e7b5 0912 2415 fcfe 033b 02f3 f409
000000d0: f30f f810 0518 18e1 ffdf 070b fa09 2eb5
000000e0: 2d0d 0bea 0905 dbe9 0702 ef09 16e2 1500
000000f0: 05f6 07fc 0605 fb08 f82c 05fc 0af0 02f3

model_1/block_4_expand/Conv2D i1 [96, 1, 1, 16]
50 -1 127 125 96 -22 23 -92
121 -27 -101 -92 65 73 -3 -95
22 51 -4 -34 44 -25 -29 46
21 28 -57 127 -29 -57 95 -77
30 -56 14 19 -55 11 -58 49
-92 -95 27 77 4 -127 95 -101
82 99 -23 21 -127 -15 -63 -27
-24 -4 105 -60 -50 64 -47 -31
9 12 20 26 -30 30 -20 60
-62 -25 -30 -5 14 -127 37 20
105 -46 -33 -6 -16 -127 -38 18
11 19 -127 -28 26 -9 -17 45
-95 -70 -29 125 -62 -9 -48 50
-127 -86 -93 -23 15 60 7 65
-42 14 -87 50 64 -127 -49 54
2 -48 52 -2 -19 31 -36 18
29 -43 -14 -4 17 32 -50 -57
-8 26 -58 24 -127 1 -14 18
29 -14 70 127 18 18 -12 -104
94 -77 12 -25 15 10 -69 8
-127 -62 -16 -29 78 65 53 78
92 -50 -66 85 36 -61 -101 78
56 -23 -127 28 62 23 -39 67
1 -36 -13 -22 -1 44 -35 31
79 -13 -26 -34 0 -46 -52 -31
34 31 -127 -6 -58 -30 9 70
43 -96 61 -73 127 31 -83 -100
58 -99 16 -28 -13 18 43 3
-48 41 -100 -24 92 -127 54 -65
52 57 -24 -95 34 101 -5 31
20 8 63 28 50 -28 -58 -26
1 -71 -62 -19 -127 -41 -21 37
00000000: 32ff 7f7d 60ea 17a4 79e5 9ba4 4149 fda1
00000010: 1633 fcde 2ce7 e32e 151c c77f e3c7 5fb3
00000020: 1ec8 0e13 c90b c631 a4a1 1b4d 0481 5f9b
00000030: 5263 e915 81f1 c1e5 e8fc 69c4 ce40 d1e1
00000040: 090c 141a e21e ec3c c2e7 e2fb 0e81 2514
00000050: 69d2 dffa f081 da12 0b13 81e4 1af7 ef2d
00000060: a1ba e37d c2f7 d032 81aa a3e9 0f3c 0741
00000070: d60e a932 4081 cf36 02d0 34fe ed1f dc12
00000080: 1dd5 f2fc 1120 cec7 f81a c618 8101 f212
00000090: 1df2 467f 1212 f498 5eb3 0ce7 0f0a bb08
000000a0: 81c2 f0e3 4e41 354e 5cce be55 24c3 9b4e
000000b0: 38e9 811c 3e17 d943 01dc f3ea ff2c dd1f
000000c0: 4ff3 e6de 00d2 cce1 221f 81fa c6e2 0946
000000d0: 2ba0 3db7 7f1f ad9c 3a9d 10e4 f312 2b03
000000e0: d029 9ce8 5c81 36bf 3439 e8a1 2265 fb1f
000000f0: 1408 3f1c 32e4 c6e6 01b9 c2ed 81d7 eb25

model_1/block_3_project/Conv2D i1 [16, 1, 1, 48]
-5 -5 -22 -5 32 3 0 104
-52 20 35 -20 21 6 -19 8
16 -17 -20 -8 53 -5 14 118
-22 99 -5 -11 39 -13 33 -27
-25 41 19 -58 12 52 13 -10
-123 -21 8 40 34 24 -127 -40
-24 -9 6 9 -35 8 4 57
-59 -37 15 -43 -24 -24 9 -3
-28 119 -19 18 2 9 -19 -14
31 -36 22 21 -43 -86 -35 18
-14 -10 35 -4 -12 -35 4 16
-21 -26 127 3 22 -12 15 -2
-25 -11 -11 -34 -1 -66 0 -22
3 9 15 25 11 13 -9 6
-9 -21 -22 -9 -3 1 0 -127
-11 76 -13 5 0 -19 0 -3
-9 50 10 -3 20 16 27 -4
-41 2 -12 -3 -7 -10 7 2
-3 38 1 -31 -5 0 8 -8
-17 -5 13 41 -127 11 -4 -5
3 9 -22 -4 -31 4 7 14
-5 -7 1 22 -11 20 2 15
3 0 15 23 -10 27 34 11
8 3 30 -30 11 -7 5 24
35 -31 3 5 18 25 21 -23
-29 -4 0 -20 3 19 6 17
15 -5 -75 9 -4 11 16 71
-6 -17 -8 43 9 -75 17 4
13 -40 31 -127 13 33 -3 16
-25 23 13 -30 -13 -19 12 5
32 -1 -17 55 0 -12 6 27
3 -11 45 5 2 44 -6 3
00000000: fbfb eafb 2003 0068 cc14 23ec 1506 ed08
00000010: 10ef ecf8 35fb 0e76 ea63 fbf5 27f3 21e5
00000020: e729 13c6 0c34 0df6 85eb 0828 2218 81d8
00000030: e8f7 0609 dd08 0439 c5db 0fd5 e8e8 09fd
00000040: e477 ed12 0209 edf2 1fdc 1615 d5aa dd12
00000050: f2f6 23fc f4dd 0410 ebe6 7f03 16f4 0ffe
00000060: e7f5 f5de ffbe 00ea 0309 0f19 0b0d f706
00000070: f7eb eaf7 fd01 0081 f54c f305 00ed 00fd
00000080: f732 0afd 1410 1bfc d702 f4fd f9f6 0702
00000090: fd26 01e1 fb00 08f8 effb 0d29 810b fcfb
000000a0: 0309 eafc e104 070e fbf9 0116 f514 020f
000000b0: 0300 0f17 f61b 220b 0803 1ee2 0bf9 0518
000000c0: 23e1 0305 1219 15e9 e3fc 00ec 0313 0611
000000d0: 0ffb b509 fc0b 1047 faef f82b 09b5 1104
000000e0: 0dd8 1f81 0d21 fd10 e717 0de2 f3ed 0c05
000000f0: 20ff ef37 00f4 061b 03f5 2d05 022c fa03

model_1/block_3_depthwise_BN/FusedBatchNormV3;model_1/block_3_depthwise/depthwise i1 [1, 3, 3, 48]
72 -96 99 72 53 -33 109 -63
62 -89 -84 50 55 -42 -71 -91
103 80 50 80 66 -72 -85 52
-33 -38 -65 -64 -67 62 -61 -115
-11 39 70 63 -64 55 -52 -23
52 -73 60 62 -92 9 78 -36
82 -98 127 87 -78 -68 -58 -83
103 -100 -65 77 80 -109 -93 92
-41 99 82 127 85 -113 53 72
-50 -78 -71 -78 52 79 -30 -127
-83 79 82 85 -79 84 -84 -14
75 -95 83 88 -70 -127 95 -100
37 -47 73 38 18 -40 -49 -39
43 -33 3 36 30 -81 -53 -2
-55 36 34 71 33 -57 33 27
-27 -47 -47 -23 32 32 88 -88
-80 45 36 35 -28 39 -40 -10
41 -42 35 43 -4 -10 36 -74
94 -119 -42 95 55 -83 127 -89
90 -113 -76 85 85 -114 -15 -127
127 106 74 -39 83 107 -127 72
71 -77 -96 -99 -127 86 -70 -8
-87 70 107 97 -84 81 -81 89
85 -103 88 94 -88 104 95 -92
127 -127 -64 127 -127 -127 -95 -127
127 -127 -127 127 127 -127 -21 94
-69 127 127 -54 127 127 69 127
127 -127 -127 -127 51 127 -28 17
-127 127 127 127 -127 127 -127 127
127 -127 127 127 -127 -12 127 -127
66 -80 -31 67 38 -62 -49 -62
55 -43 -62 61 49 -50 -17 9
00000000: 48a0 6348 35df 6dc1 3ea7 ac32 37d6 b9a5
00000010: 6750 3250 42b8 ab34 dfda bfc0 bd3e c38d
00000020: f527 463f c037 cce9 34b7 3c3e a409 4edc
00000030: 529e 7f57 b2bc c6ad 679c bf4d 5093 a35c
00000040: d763 527f 558f 3548 ceb2 b9b2 344f e281
00000050: ad4f 5255 b154 acf2 4ba1 5358 ba81 5f9c
00000060: 25d1 4926 12d8 cfd9 2bdf 0324 1eaf cbfe
00000070: c924 2247 21c7 211b e5d1 d1e9 2020 58a8
00000080: b02d 2423 e427 d8f6 29d6 232b fcf6 24b6
00000090: 5e89 d65f 37ad 7fa7 5a8f b455 558e f181
000000a0: 7f6a 4ad9 536b 8148 47b3 a09d 8156 baf8
000000b0: a946 6b61 ac51 af59 5599 585e a868 5fa4
000000c0: 7f81 c07f 8181 a181 7f81 817f 7f81 eb5e
000000d0: bb7f 7fca 7f7f 457f 7f81 8181 337f e411
000000e0: 817f 7f7f 817f 817f 7f81 7f7f 81f4 7f81
000000f0: 42b0 e143 26c2 cfc2 37d5 c23d 31ce ef09

model_1/block_3_expand/Conv2D i1 [48, 1, 1, 8]
-127 2 12 65 -43 39 22 -31
18 73 86 12 5 -47 122 127
-53 -5 24 -5 -127 -15 9 8
83 -13 5 -94 -127 10 41 -3
-127 33 -23 -7 35 -17 39 33
-102 -31 26 -12 -127 18 10 81
-16 -127 12 -21 -7 14 3 38
-59 -6 9 94 127 -50 -42 3
72 1 -6 -127 -21 -10 -36 -37
-21 -127 -8 0 -3 100 -52 92
-86 7 -12 0 -127 91 40 -32
109 9 34 16 -53 -49 -33 -127
6 14 42 -5 8 -67 127 59
49 -21 7 -24 127 125 107 -64
127 51 -25 -2 -93 -12 -8 -15
-15 -127 6 -16 -9 14 16 36
-52 -20 -9 3 -127 6 24 22
-26 101 -127 10 17 -126 116 -104
127 -44 -40 14 -65 26 12 113
127 -61 -13 -13 51 4 15 6
127 36 -21 111 14 52 19 -52
9 54 -50 -8 -5 97 -127 -99
-127 30 20 0 -33 0 -31 -4
-44 -59 2 27 -127 60 83 -11
99 -17 13 7 -127 -16 -5 7
35 -17 -5 -18 127 52 49 -35
19 -79 10 -39 12 -127 74 -49
-22 -127 26 -18 -4 -53 33 -2
-85 10 -29 13 -37 -13 127 55
2 48 1 8 12 51 -114 -127
127 -50 -5 -12 -57 14 -79 -37
-5 -49 73 -24 3 -84 127 76
00000000: 8102 0c41 d527 16e1 1249 560c 05d1 7a7f
00000010: cbfb 18fb 81f1 0908 53f3 05a2 810a 29fd
00000020: 8121 e9f9 23ef 2721 9ae1 1af4 8112 0a51
00000030: f081 0ceb f90e 0326 c5fa 095e 7fce d603
00000040: 4801 fa81 ebf6 dcdb eb81 f800 fd64 cc5c
00000050: aa07 f400 815b 28e0 6d09 2210 cbcf df81
00000060: 060e 2afb 08bd 7f3b 31eb 07e8 7f7d 6bc0
00000070: 7f33 e7fe a3f4 f8f1 f181 06f0 f70e 1024
00000080: ccec f703 8106 1816 e665 810a 1182 7498
00000090: 7fd4 d80e bf1a 0c71 7fc3 f3f3 3304 0f06
000000a0: 7f24 eb6f 0e34 13cc 0936 cef8 fb61 819d
000000b0: 811e 1400 df00 e1fc d4c5 021b 813c 53f5
000000c0: 63ef 0d07 81f0 fb07 23ef fbee 7f34 31dd
000000d0: 13b1 0ad9 0c81 4acf ea81 1aee fccb 21fe
000000e0: ab0a e30d dbf3 7f37 0230 0108 0c33 8e81
000000f0: 7fce fbf4 c70e b1db fbcf 49e8 03ac 7f4c

model_1/block_2_project/Conv2D i1 [8, 1, 1, 48]
-55 -22 -51 8 13 -43 0 -11
-108 118 -41 111 115 19 96 -20
16 -49 8 2 12 -12 -26 -40
26 -105 26 65 -2 43 15 -41
-3 -58 127 -2 0 -12 23 -16
112 19 43 -30 -18 3 -20 -13
0 20 127 7 -7 -37 0 -82
24 13 24 13 -22 9 -5 -123
8 -61 12 1 -39 27 19 -32
-21 -6 25 -2 10 -2 17 -5
-6 12 28 19 -24 -33 73 -54
13 56 -15 28 -14 9 25 -12
4 -49 12 -47 27 22 -7 -26
11 -5 -4 10 -20 53 9 2
-41 127 -22 -30 -15 24 -38 -11
112 1 5 -8 -22 -2 1 -42
-6 -15 -5 1 -9 -7 -9 2
25 -22 -15 0 4 26 -29 -33
8 -87 1 8 1 -8 -18 -4
0 -12 12 21 2 -11 51 6
-15 -18 8 20 -10 17 -25 2
7 60 11 9 -3 5 127 -3
13 4 -7 6 -25 -11 -11 13
-18 9 0 28 -16 12 2 30
-118 6 10 1 4 -54 5 2
49 -47 19 -21 -37 -3 -3 -7
5 9 3 29 16 -42 11 -3
-13 49 12 127 3 14 -11 -26
2 -124 -33 7 0 -5 10 -6
-55 8 -9 17 -61 8 4 8
-18 29 22 9 -49 1 2 39
17 -2 7 11 -14 -39 22 35
00000000: c9ea cd08 0dd5 00f5 9476 d76f 7313 60ec
00000010: 10cf 0802 0cf4 e6d8 1a97 1a41 fe2b 0fd7
00000020: fdc6 7ffe 00f4 17f0 7013 2be2 ee03 ecf3
00000030: 0014 7f07 f9db 00ae 180d 180d ea09 fb85
00000040: 08c3 0c01 d91b 13e0 ebfa 19fe 0afe 11fb
00000050: fa0c 1c13 e8df 49ca 0d38 f11c f209 19f4
00000060: 04cf 0cd1 1b16 f9e6 0bfb fc0a ec35 0902
00000070: d77f eae2 f118 daf5 7001 05f8 eafe 01d6
00000080: faf1 fb01 f7f9 f702 19ea f100 041a e3df
00000090: 08a9 0108 01f8 eefc 00f4 0c15 02f5 3306
000000a0: f1ee 0814 f611 e702 073c 0b09 fd05 7ffd
000000b0: 0d04 f906 e7f5 f50d ee09 001c f00c 021e
000000c0: 8a06 0a01 04ca 0502 31d1 13eb dbfd fdf9
000000d0: 0509 031d 10d6 0bfd f331 0c7f 030e f5e6
000000e0: 0284 df07 00fb 0afa c908 f711 c308 0408
000000f0: ee1d 1609 cf01 0227 11fe 070b f2d9 1623

model_1/block_2_depthwise_BN/FusedBatchNormV3;model_1/block_2_depthwise/depthwise;model_1/block_3_depthwise/depthwise i1 [1, 3, 3, 48]
3 -4 20 108 4 79 0 28
17 8 10 7 -9 -8 -44 8
-1 8 -20 -112 -6 -24 127 -9
-1 8 -6 8 -5 4 15 97
20 28 37 -27 1 36 -2 3
17 -66 -9 -10 17 1 -6 -10
127 9 14 -127 27 84 12 10
127 127 9 44 -54 -24 6 8
127 -56 -58 -58 -98 26 -106 15
18 74 -32 -83 22 21 9 -123
5 -60 127 10 -40 -46 -5 117
-80 -100 -31 3 -34 -10 -127 23
-32 -4 7 14 -1 62 6 17
29 8 -14 32 -14 -4 17 3
-102 29 -3 74 -30 -12 -18 -6
-4 -59 -4 30 -16 5 4 -21
8 -23 18 -18 0 49 41 -12
51 38 -17 12 -42 1 -2 -5
126 7 0 -96 14 -28 35 -17
10 9 -12 54 -5 0 19 -33
1 -49 -57 -85 11 -74 -123 -18
6 101 -15 -127 -8 32 12 -106
17 -52 -2 127 -3 60 -42 43
-64 -127 39 -90 -46 -14 -12 -4
28 -127 -127 115 -127 -127 -127 -127
-126 -94 127 -127 127 127 35 -127
-82 127 127 -109 127 127 111 127
127 -127 -127 30 -127 -127 95 127
-127 127 -26 -41 127 -127 127 127
127 -81 127 127 127 -122 102 107
55 4 48 -12 6 -63 45 18
-23 15 -104 -7 1 -41 127 4
00000000: 03fc 146c 044f 001c 1108 0a07 f7f8 d408
00000010: ff08 ec90 fae8 7ff7 ff08 fa08 fb04 0f61
00000020: 141c 25e5 0124 fe03 11be f7f6 1101 faf6
00000030: 7f09 0e81 1b54 0c0a 7f7f 092c cae8 0608
00000040: 7fc8 c6c6 9e1a 960f 124a e0ad 1615 0985
00000050: 05c4 7f0a d8d2 fb75 b09c e103 def6 8117
00000060: e0fc 070e ff3e 0611 1d08 f220 f2fc 1103
00000070: 9a1d fd4a e2f4 eefa fcc5 fc1e f005 04eb
00000080: 08e9 12ee 0031 29f4 3326 ef0c d601 fefb
00000090: 7e07 00a0 0ee4 23ef 0a09 f436 fb00 13df
000000a0: 01cf c7ab 0bb6 85ee 0665 f181 f820 0c96
000000b0: 11cc fe7f fd3c d62b c081 27a6 d2f2 f4fc
000000c0: 1c81 8173 8181 8181 82a2 7f81 7f7f 2381
000000d0: ae7f 7f93 7f7f 6f7f 7f81 811e 8181 5f7f
000000e0: 817f e6d7 7f81 7f7f 7faf 7f7f 7f86 666b
000000f0: 3704 30f4 06c1 2d12 e90f 98f9 01d7 7f04

model_1/block_2_expand/Conv2D i1 [48, 1, 1, 8]
76 52 8 -19 127 23 -65 -29
0 3 -5 127 0 -4 12 5
26 -127 -20 42 -14 -71 70 3
127 -17 -23 24 -16 -37 39 -2
8 -51 127 -16 1 -43 27 -101
86 0 2 -10 127 8 -28 -7
-6 86 -23 127 15 60 -70 -71
-5 127 -7 5 -2 -5 12 -11
127 60 4 7 -64 -32 -10 -28
-127 13 8 28 26 12 10 -3
-46 -7 -3 127 22 23 -12 5
-127 8 21 -64 28 -6 -32 -34
127 18 -5 41 -72 -26 5 -50
-6 73 -127 -2 10 115 -100 76
-65 -30 -20 127 44 9 44 -25
-5 127 1 -5 -4 -21 11 -43
-29 -127 -15 -12 17 -120 124 -15
19 127 0 -17 -4 73 -84 -22
-1 53 -127 -7 12 44 -25 65
-58 12 9 1 -127 2 -2 24
-127 -18 0 5 71 -30 39 4
-63 -26 -5 9 -127 14 3 -5
-127 -8 3 -2 62 -5 43 32
-20 -13 -3 -16 0 79 -127 -102
-10 42 -127 7 8 46 -24 81
63 -33 -3 127 -87 -4 13 -37
2 -18 0 -4 -25 127 112 -32
49 -4 8 13 127 31 21 -25
-5 113 -77 0 10 76 -26 127
-13 20 -3 -14 -2 77 -127 -87
10 -5 2 -127 -5 -8 -8 -13
-57 -2 -1 17 -127 7 11 1
00000000: 4c34 08ed 7f17 bfe3 0003 fb7f 00fc 0c05
00000010: 1a81 ec2a f2b9 4603 7fef e918 f0db 27fe
00000020: 08cd 7ff0 01d5 1b9b 5600 02f6 7f08 e4f9
00000030: fa56 e97f 0f3c bab9 fb7f f905 fefb 0cf5
00000040: 7f3c 0407 c0e0 f6e4 810d 081c 1a0c 0afd
00000050: d2f9 fd7f 1617 f405 8108 15c0 1cfa e0de
00000060: 7f12 fb29 b8e6 05ce fa49 81fe 0a73 9c4c
00000070: bfe2 ec7f 2c09 2ce7 fb7f 01fb fceb 0bd5
00000080: e381 f1f4 1188 7cf1 137f 00ef fc49 acea
00000090: ff35 81f9 0c2c e741 c60c 0901 8102 fe18
000000a0: 81ee 0005 47e2 2704 c1e6 fb09 810e 03fb
000000b0: 81f8 03fe 3efb 2b20 ecf3 fdf0 004f 819a
000000c0: f62a 8107 082e e851 3fdf fd7f a9fc 0ddb
000000d0: 02ee 00fc e77f 70e0 31fc 080d 7f1f 15e7
000000e0: fb71 b300 0a4c e67f f314 fdf2 fe4d 81a9
000000f0: 0afb 0281 fbf8 f8f3 c7fe ff11 8107 0b01

model_1/block_1_project/Conv2D i1 [8, 1, 1, 48]
-8 3 9 -96 8 26 9 4
-2 1 4 -2 102 0 0 6
0 -8 -6 0 79 -7 -4 4
34 51 15 14 -3 3 7 -127
11 7 0 4 -20 -1 -3 30
9 -25 -1 4 7 -3 9 4
-38 -8 -7 -6 47 32 -41 77
18 3 -33 -25 18 0 19 40
0 41 20 -47 5 25 127 25
-25 4 57 8 18 -6 18 -6
15 -12 -9 -14 8 -68 13 5
3 -5 -95 -4 -42 7 -50 -99
-59 13 -2 14 42 -2 29 22
-8 58 11 -6 7 0 -1 46
0 8 -127 26 4 4 1 -20
-30 3 39 8 4 32 24 9
10 -8 -13 -11 7 4 3 8
41 -6 -33 6 22 -55 25 16
2 -2 -4 4 -4 21 1 -5
61 11 -1 5 25 0 -30 -2
0 2 -6 0 -9 -2 6 -11
-11 -6 -11 -6 -3 -6 -7 -12
-46 44 -50 0 8 0 11 -127
0 7 5 -49 -3 3 0 3
-2 -3 84 32 3 -19 -1 -4
5 -7 -4 -5 -81 0 -12 5
0 3 4 3 70 -3 -1 -9
-14 37 -3 40 -17 -2 3 104
5 5 2 -4 11 -21 -4 -19
-2 -127 0 -2 0 -7 -1 -2
-4 43 0 -7 5 43 24 13
-20 30 6 53 26 0 -127 -2
00000000: f803 09a0 081a 0904 fe01 04fe 6600 0006
00000010: 00f8 fa00 4ff9 fc04 2233 0f0e fd03 0781
00000020: 0b07 0004 ecff fd1e 09e7 ff04 07fd 0904
00000030: daf8 f9fa 2f20 d74d 1203 dfe7 1200 1328
00000040: 0029 14d1 0519 7f19 e704 3908 12fa 12fa
00000050: 0ff4 f7f2 08bc 0d05 03fb a1fc d607 ce9d
00000060: c50d fe0e 2afe 1d16 f83a 0bfa 0700 ff2e
00000070: 0008 811a 0404 01ec e203 2708 0420 1809
00000080: 0af8 f3f5 0704 0308 29fa df06 16c9 1910
00000090: 02fe fc04 fc15 01fb 3d0b ff05 1900 e2fe
000000a0: 0002 fa00 f7fe 06f5 f5fa f5fa fdfa f9f4
000000b0: d22c ce00 0800 0b81 0007 05cf fd03 0003
000000c0: fefd 5420 03ed fffc 05f9 fcfb af00 f405
000000d0: 0003 0403 46fd fff7 f225 fd28 effe 0368
000000e0: 0505 02fc 0beb fced fe81 00fe 00f9 fffe
000000f0: fc2b 00f9 052b 180d ec1e 0635 1a00 81fe

model_1/block_1_depthwise_BN/FusedBatchNormV3;model_1/block_1_depthwise/depthwise;model_1/block_3_depthwise/depthwise i1 [1, 3, 3, 48]
-43 -22 -8 -17 6 -39 -79 -68
-25 -51 7 63 33 -71 113 -42
-113 -86 38 -6 0 -72 -111 -80
-34 -127 -62 -21 70 15 96 26
-127 -91 -7 56 17 49 -127 79
-76 -12 108 -110 -4 -36 -88 112
75 12 -27 -27 57 -127 -127 -81
61 -75 -115 104 37 -82 -1 62
-52 -114 58 8 10 -111 -127 -72
-5 -121 -118 -42 -52 21 -58 54
28 -127 66 86 12 73 -92 127
-127 6 125 -127 1 -24 -127 96
-33 44 7 -5 -65 -110 -58 -17
88 -8 -127 36 9 -71 -102 -12
-127 -26 28 12 -14 -75 -35 -24
-11 -32 -58 -13 -12 18 -25 9
107 -89 72 30 13 37 -5 16
-78 3 7 -82 -17 5 -55 17
-87 -127 -46 -45 -11 55 98 -106
-23 -109 -19 109 90 -64 26 -95
-121 -93 90 -78 42 -89 -104 -127
44 -119 -78 -36 127 -61 127 84
-43 -87 -15 84 -35 -76 -108 90
41 61 103 -111 -91 -117 82 119
127 -85 -127 -127 127 42 93 -127
101 -127 -106 127 127 -14 -7 127
-60 -127 127 -127 127 -127 -121 -120
127 -94 -127 -127 -117 -127 -71 127
28 -112 127 127 -69 -127 -97 89
62 127 127 -120 -112 -127 126 127
-54 32 -62 -84 -121 -23 31 -38
127 -21 -73 35 56 -70 -26 -44
00000000: d5ea f8ef 06d9 b1bc e7cd 073f 21b9 71d6
00000010: 8faa 26fa 00b8 91b0 de81 c2eb 460f 601a
00000020: 81a5 f938 1131 814f b4f4 6c92 fcdc a870
00000030: 4b0c e5e5 3981 81af 3db5 8d68 25ae ff3e
00000040: cc8e 3a08 0a91 81b8 fb87 8ad6 cc15 c636
00000050: 1c81 4256 0c49 a47f 8106 7d81 01e8 8160
00000060: df2c 07fb bf92 c6ef 58f8 8124 09b9 9af4
00000070: 81e6 1c0c f2b5 dde8 f5e0 c6f3 f412 e709
00000080: 6ba7 481e 0d25 fb10 b203 07ae ef05 c911
00000090: a981 d2d3 f537 6296 e993 ed6d 5ac0 1aa1
000000a0: 87a3 5ab2 2aa7 9881 2c89 b2dc 7fc3 7f54
000000b0: d5a9 f154 ddb4 945a 293d 6791 a58b 5277
000000c0: 7fab 8181 7f2a 5d81 6581 967f 7ff2 f97f
000000d0: c481 7f81 7f81 8788 7fa2 8181 8b81 b97f
000000e0: 1c90 7f7f bb81 9f59 3e7f 7f88 9081 7e7f
000000f0: ca20 c2ac 87e9 1fda 7feb b723 38ba e6d4

model_1/block_1_expand/Conv2D i1 [48, 1, 1, 8]
14 -127 48 -44 26 -24 -41 27
64 76 -26 -97 -5 -20 -81 127
35 7 -54 119 51 127 43 95
90 68 -101 127 -124 -5 -1 18
-36 -104 74 23 27 31 -44 -127
19 10 -23 46 -10 -38 37 127
51 -15 -110 -83 127 -8 41 -35
127 18 22 -18 30 -8 91 -70
37 -104 14 125 7 31 -9 -127
108 -115 14 10 -19 6 -127 96
-127 -46 -123 22 -12 8 -104 54
-20 -40 1 -102 -127 -47 50 -13
8 4 -33 72 -69 -13 61 127
0 0 0 0 0 0 0 0
-3 -30 -7 13 41 127 43 44
49 5 6 -127 78 50 -44 86
0 0 0 0 0 0 0 0
11 24 127 37 -35 -14 31 20
80 -127 32 44 -12 13 -120 -9
-127 -24 34 69 -66 -46 -89 69
22 31 -41 127 -18 -127 1 56
63 22 127 8 -11 -2 59 12
-86 -9 -127 3 5 10 -110 -1
-85 127 -9 -6 4 -10 106 -72
6 -61 -58 84 -19 -56 106 127
5 42 35 39 127 109 -78 -60
-88 -23 -127 -1 12 17 -105 -2
-1 -22 -36 7 -37 127 64 47
0 -21 -9 39 17 127 58 68
92 30 127 4 -12 -19 83 -14
-72 127 -26 -31 5 -12 103 -42
-55 -89 -23 21 49 -80 127 106
00000000: 0e81 30d4 1ae8 d71b 404c e69f fbec af7f
00000010: 2307 ca77 337f 2b5f 5a44 9b7f 84fb ff12
00000020: dc98 4a17 1b1f d481 130a e92e f6da 257f
00000030: 33f1 92ad 7ff8 29dd 7f12 16ee 1ef8 5bba
00000040: 2598 0e7d 071f f781 6c8d 0e0a ed06 8160
00000050: 81d2 8516 f408 9836 ecd8 019a 81d1 32f3
00000060: 0804 df48 bbf3 3d7f 0000 0000 0000 0000
00000070: fde2 f90d 297f 2b2c 3105 0681 4e32 d456
00000080: 0000 0000 0000 0000 0b18 7f25 ddf2 1f14
00000090: 5081 202c f40d 88f7 81e8 2245 bed2 a745
000000a0: 161f d77f ee81 0138 3f16 7f08 f5fe 3b0c
000000b0: aaf7 8103 050a 92ff ab7f f7fa 04f6 6ab8
000000c0: 06c3 c654 edc8 6a7f 052a 2327 7f6d b2c4
000000d0: a8e9 81ff 0c11 97fe ffea dc07 db7f 402f
000000e0: 00eb f727 117f 3a44 5c1e 7f04 f4ed 53f2
000000f0: b87f e6e1 05f4 67d6 c9a7 e915 31b0 7f6a

model_1/expanded_conv_project/Conv2D i1 [8, 1, 1, 16]
0 -22 3 -4 123 -2 -5 -1
-1 -127 -90 -3 0 120 0 0
0 -25 -1 91 69 17 13 4
-1 -8 127 -48 0 31 -14 0
0 -3 -2 -13 -58 0 12 5
0 2 -17 1 0 127 -8 0
0 -12 -22 -127 82 25 61 14
0 60 -4 38 0 -6 29 0
0 41 -25 34 -60 31 127 10
1 -65 20 -13 0 -11 20 0
0 -16 -15 1 -22 -25 -14 16
1 10 -7 -46 0 -6 127 0
0 13 -8 2 51 -15 -26 -10
0 -107 112 63 0 127 64 0
0 11 -15 127 6 -1 16 10
-1 71 -52 75 0 -7 55 0
00000000: 00ea 03fc 7bfe fbff ff81 a6fd 0078 0000
00000010: 00e7 ff5b 4511 0d04 fff8 7fd0 001f f200
00000020: 00fd fef3 c600 0c05 0002 ef01 007f f800
00000030: 00f4 ea81 5219 3d0e 003c fc26 00fa 1d00
00000040: 0029 e722 c41f 7f0a 01bf 14f3 00f5 1400
00000050: 00f0 f101 eae7 f210 010a f9d2 00fa 7f00
00000060: 000d f802 33f1 e6f6 0095 703f 007f 4000
00000070: 000b f17f 06ff 100a ff47 cc4b 00f9 3700

model_1/expanded_conv_depthwise_BN/FusedBatchNormV3;model_1/expanded_conv_depthwise/depthwise;model_1/block_5_project/Conv2D i1 [1, 3, 3, 16]
-108 18 -83 -126 38 -67 80 -76
-90 -3 -8 29 -127 4 54 -73
51 24 -127 127 127 -127 127 -127
-85 127 -127 51 -105 5 127 -25
24 -25 88 -2 -73 67 -95 77
-95 -27 3 -15 61 1 -101 -29
-127 127 -24 14 -44 16 -29 14
-28 1 3 -109 -49 8 -30 -14
-78 -42 -58 -14 -8 -26 8 -28
-108 -89 21 -12 -104 -127 1 23
14 1 63 2 2 34 -26 33
-127 7 -2 2 -21 12 -4 43
-115 -73 68 2 -7 39 -40 52
-76 0 0 4 40 2 -27 23
23 -5 31 -1 -27 40 -35 21
-125 -13 0 84 -58 0 -29 -111
21 -8 19 0 4 14 9 22
-115 4 -1 -127 107 3 17 -127
00000000: 9412 ad82 26bd 50b4 a6fd f81d 8104 36b7
00000010: 3318 817f 7f81 7f81 ab7f 8133 9705 7fe7
00000020: 18e7 58fe b743 a14d a1e5 03f1 3d01 9be3
00000030: 817f e80e d410 e30e e401 0393 cf08 e2f2
00000040: b2d6 c6f2 f8e6 08e4 94a7 15f4 9881 0117
00000050: 0e01 3f02 0222 e621 8107 fe02 eb0c fc2b
00000060: 8db7 4402 f927 d834 b400 0004 2802 e517
00000070: 17fb 1fff e528 dd15 83f3 0054 c600 e391
00000080: 15f8 1300 040e 0916 8d04 ff81 6b03 1181

model_1/Conv1/Conv2D i1 [16, 3, 3, 3]
0 0 0 0 0 0 0 0
0 0 0 0 0 0 0 0
0 0 0 0 0 0 0 0
0 0 0 34 -10 19 -15 -27
9 -127 -111 -58 -6 -9 -7 -29
2 -5 -8 -26 11 -9 15 -4
-9 10 1 32 -10 17 20 -1
-18 45 112 -11 30 -31 -1 3
18 -13 43 127 -38 15 3 -14
36 -62 5 53 -41 -33 26 -50
5 -2 38 -4 19 94 7 -2
7 -5 21 50 -2 56 127 14
-16 -22 0 13 11 1 21 20
1 -4 -9 -1 42 93 -28 9
94 -31 -19 23 -6 55 110 17
32 127 -8 41 63 -36 77 73
-13 66 122 -31 5 31 -1 5
-4 -121 -1 1 -104 -6 26 -33
1 -48 -127 -2 -49 -114 -3 8
-24 -5 5 -15 -1 -6 -9 -6
6 -14 30 -62 32 51 -86 38
13 -19 8 39 -96 59 64 -127
71 9 -28 17 22 -36 12 15
-44 28 -13 7 1 -32 15 0
-109 -41 -2 -26 21 -3 -15 -9
-3 -127 -94 -9 -8 -7 0 -25
28 -10 -15 9 -2 -23 23 -4
123 127 114 122 126 113 122 125
112 123 125 113 120 123 110 122
124 110 122 124 112 120 124 111
121 123 111 -14 2 4 -6 -5
-10 2 1 -14 82 110 -12 60
00000000: 0000 0000 0000 0000 0000 0000 0000 0000
00000010: 0000 0000 0000 0000 0000 0022 f613 f1e5
00000020: 0981 91c6 faf7 f9e3 02fb f8e6 0bf7 0ffc
00000030: f70a 0120 f611 14ff ee2d 70f5 1ee1 ff03
00000040: 12f3 2b7f da0f 03f2 24c2 0535 d7df 1ace
00000050: 05fe 26fc 135e 07fe 07fb 1532 fe38 7f0e
00000060: f0ea 000d 0b01 1514 01fc f7ff 2a5d e409
00000070: 5ee1 ed17 fa37 6e11 207f f829 3fdc 4d49
00000080: f342 7ae1 051f ff05 fc87 ff01 98fa 1adf
00000090: 01d0 81fe cf8e fd08 e8fb 05f1 fffa f7fa
000000a0: 06f2 1ec2 2033 aa26 0ded 0827 a03b 4081
000000b0: 4709 e411 16dc 0c0f d41c f307 01e0 0f00
000000c0: 93d7 fee6 15fd f1f7 fd81 a2f7 f8f9 00e7
000000d0: 1cf6 f109 fee9 17fc 7b7f 727a 7e71 7a7d
000000e0: 707b 7d71 787b 6e7a 7c6e 7a7c 7078 7c6f
000000f0: 797b 6ff2 0204 fafb f602 01f2 526e f43c
