DETECCION OBJETOS/TFLITE/ei-transito-v2-openmv-v3/trainedv3.tflite (tflite, 56856 bytes, 21 tensors)

model_1/logits/Conv2D i1 [7, 1, 1, 32]
000000 15 f2 23 f0 dc f9 47 59 03 bc 2f 00 30 e8 dc 0f
       21 -14 35 -16 -36 -7 71 89 3 -68 47 0 48 -24 -36 15
000010 55 3d 55 ce eb aa 52 bf 7f 13 dc 1a d9 88 78 d3
       85 61 85 -50 -21 -86 82 -65 127 19 -36 26 -39 -120 120 -45
000020 38 a8 0f f9 20 e1 29 b0 6d 0a b7 b7 c8 55 22 55
       56 -88 15 -7 32 -31 41 -80 109 10 -73 -73 -56 85 34 85
000030 e0 2d 22 b0 48 48 d9 0d 94 19 5c 13 25 e2 81 ec
       -32 45 34 -80 72 72 -39 13 -108 25 92 19 37 -30 -127 -20
000040 ed b4 6d 5e 26 ce 4b 45 bb 5d a6 e3 16 fc 11 c2
       -19 -76 109 94 38 -50 75 69 -69 93 -90 -29 22 -4 17 -62
000050 f7 fc 4f a2 eb 69 81 04 dd ec 4a d3 af 26 22 2d
       -9 -4 79 -94 -21 105 -127 4 -35 -20 74 -45 -81 38 34 45
000060 6a 12 da 0d 0a 94 34 d4 81 4c 25 e6 0a ed 8d 2f
       106 18 -38 13 10 -108 52 -44 -127 76 37 -26 10 -19 -115 47
000070 ab 67 bc 74 32 16 27 03 d1 a2 c3 e9 36 ba d6 3e
       -85 103 -68 116 50 22 39 3 -47 -94 -61 -23 54 -70 -42 62
000080 e3 50 e6 78 7f a5 d4 cd f1 74 60 f7 cf f0 ca cc
       -29 80 -26 120 127 -91 -44 -51 -15 116 96 -9 -49 -16 -54 -52
000090 d5 31 66 1d 9e 3d 8f 13 ba 1e b1 29 a2 79 b9 a4
       -43 49 102 29 -98 61 -113 19 -70 30 -79 41 -94 121 -71 -92
0000a0 46 cf f5 50 dc 5e 69 4a 95 d4 63 cf bf 10 cf a9
       70 -49 -11 80 -36 94 105 74 -107 -44 99 -49 -65 16 -49 -87
0000b0 a7 01 00 e8 54 51 81 20 0b af 6a 75 18 d8 af 03
       -89 1 0 -24 84 81 -127 32 11 -81 106 117 24 -40 -81 3
0000c0 64 f0 ef 2b c5 ba d1 ff 43 ae 18 9a f1 04 c7 54
       100 -16 -17 43 -59 -70 -47 -1 67 -82 24 -102 -15 4 -57 84
0000d0 15 f3 2b c3 96 67 d2 4a cf d9 a8 ba 81 06 c7 36
       21 -13 43 -61 -106 103 -46 74 -49 -39 -88 -70 -127 6 -57 54

model_1/head/Conv2D i1 [32, 1, 1, 96]
000000 fc c6 62 15 5e f5 ba a1 4b a8 aa 04 36 17 e5 3e
       -4 -58 98 21 94 -11 -70 -95 75 -88 -86 4 54 23 -27 62
000010 c9 ee d2 e6 cb a4 02 67 9b 18 53 cc 73 1c fb d4
       -55 -18 -46 -26 -53 -92 2 103 -101 24 83 -52 115 28 -5 -44
000020 58 d5 b2 1b 9a c8 a3 29 53 bd 98 5b 40 ab 70 f6
       88 -43 -78 27 -102 -56 -93 41 83 -67 -104 91 64 -85 112 -10
000030 1e e8 eb 6c c4 e0 b2 6f 0e 3b 58 9c cf 46 e1 38
       30 -24 -21 108 -60 -32 -78 111 14 59 88 -100 -49 70 -31 56
000040 04 1f 44 6b 47 44 46 9c 65 b7 21 4e b2 05 d6 24
       4 31 68 107 71 68 70 -100 101 -73 33 78 -78 5 -42 36
000050 44 19 5f 11 d8 df bb 74 22 7f 00 aa 1a 41 31 03
       68 25 95 17 -40 -33 -69 116 34 127 0 -86 26 65 49 3
000060 cd 2a d0 01 ca 47 26 0a 57 b2 a3 63 49 e8 1f 42
       -51 42 -48 1 -54 71 38 10 87 -78 -93 99 73 -24 31 66
000070 66 e1 3b 61 d4 02 21 17 19 1b de 73 11 fa 5a bc
       102 -31 59 97 -44 2 33 23 25 27 -34 115 17 -6 90 -68
000080 42 5f f8 2a 30 31 f8 cc c5 05 fa a7 f1 24 e5 d7
       66 95 -8 42 48 49 -8 -52 -59 5 -6 -89 -15 36 -27 -41
000090 f2 c6 74 27 26 4a c1 e0 1c 5c 52 48 c6 7f af d1
       -14 -58 116 39 38 74 -63 -32 28 92 82 72 -58 127 -81 -47
0000a0 c4 20 4a 2e 5a 24 03 08 95 56 d3 39 49 db e1 56
       -60 32 74 46 90 36 3 8 -107 86 -45 57 73 -37 -31 86
0000b0 c0 49 cb 9d 1d 5c c4 c8 46 48 74 07 48 3f 14 05
       -64 73 -53 -99 29 92 -60 -56 70 72 116 7 72 63 20 5
0000c0 2e 13 ba 59 ed bd 50 47 95 3e df 61 50 e5 3e 96
       46 19 -70 89 -19 -67 80 71 -107 62 -33 97 80 -27 62 -106
0000d0 c3 f2 fc 36 a2 ef 6a 12 f4 32 69 fc ae 38 46 63
       -61 -14 -4 54 -94 -17 106 18 -12 50 105 -4 -82 56 70 99
0000e0 bb ed a0 81 ab 5a 54 e7 92 c2 03 ef 9f 62 e8 a6
       -69 -19 -96 -127 -85 90 84 -25 -110 -62 3 -17 -97 98 -24 -90
0000f0 5d 09 3c ae bb 3f 13 03 c6 56 d0 ff e2 20 db 3a
       93 9 60 -82 -69 63 19 3 -58 86 -48 -1 -30 32 -37 58

model_1/block_6_expand/Conv2D i1 [96, 1, 1, 16]
000000 de 48 f7 81 d9 e8 dd d5 df 1a f8 33 0f c6 e5 38
       -34 72 -9 -127 -39 -24 -35 -43 -33 26 -8 51 15 -58 -27 56
000010 da 0f bd f6 f0 db 23 a5 3b 23 ba 0a fb 07 38 81
       -38 15 -67 -10 -16 -37 35 -91 59 35 -70 10 -5 7 56 -127
000020 06 d7 ab 06 73 e6 cb 83 7d c1 cd d1 04 7f 94 3f
       6 -41 -85 6 115 -26 -53 -125 125 -63 -51 -47 4 127 -108 63
000030 35 ad f4 9c 0c dd 02 09 52 19 2f 16 e6 1f 02 7f
       53 -83 -12 -100 12 -35 2 9 82 25 47 22 -26 31 2 127
000040 92 56 09 2b 17 e7 01 32 de f4 f4 c4 81 e0 fc 42
       -110 86 9 43 23 -25 1 50 -34 -12 -12 -60 -127 -32 -4 66
000050 fd 4a 7e 08 fd 57 a3 40 da 53 f8 eb 22 db 81 0b
       -3 74 126 8 -3 87 -93 64 -38 83 -8 -21 34 -37 -127 11
000060 26 b9 7e 81 3a fd d3 5f c1 9d 51 e6 12 5e 02 44
       38 -71 126 -127 58 -3 -45 95 -63 -99 81 -26 18 94 2 68
000070 25 6c f5 e0 53 14 02 cd 7f 63 f4 19 15 ea 37 1a
       37 108 -11 -32 83 20 2 -51 127 99 -12 25 21 -22 55 26
000080 0a a7 0a 9c 29 bf 1c a7 15 2b 44 ea 20 7f 5a 3a
       10 -89 10 -100 41 -65 28 -89 21 43 68 -22 32 127 90 58
000090 fe e2 f7 7f 1f fc 28 bd c7 78 24 ee f5 b9 ff f5
       -2 -30 -9 127 31 -4 40 -67 -57 120 36 -18 -11 -71 -1 -11
0000a0 04 07 d6 81 1e ee 00 1f 28 e6 0c df fd d2 eb f6
       4 7 -42 -127 30 -18 0 31 40 -26 12 -33 -3 -46 -21 -10
0000b0 0c 0e 02 ec 4e d8 6b d7 a7 23 eb 27 00 7f ad e9
       12 14 2 -20 78 -40 107 -41 -89 35 -21 39 0 127 -83 -23
0000c0 2b c5 81 d8 1e a8 2d 30 f8 36 b8 a8 cb 66 f4 47
       43 -59 -127 -40 30 -88 45 48 -8 54 -72 -88 -53 102 -12 71
0000d0 f3 03 f0 0b 0c 81 fe 0a 03 f8 06 fc 11 f8 0b 05
       -13 3 -16 11 12 -127 -2 10 3 -8 6 -4 17 -8 11 5
0000e0 11 da 61 db 2b 03 81 a2 e5 e7 2c 11 01 c6 e3 df
       17 -38 97 -37 43 3 -127 -94 -27 -25 44 17 1 -58 -29 -33
0000f0 9c 02 f6 b6 02 03 73 0f e9 2c 68 de 03 7f 56 0e
       -100 2 -10 -74 2 3 115 15 -23 44 104 -34 3 127 86 14

model_1/block_5_project/Conv2D i1 [16, 1, 1, 96]
000000 e3 fc 11 e9 0e f7 cc f6 15 fe 04 06 fe f5 e5 f9
       -29 -4 17 -23 14 -9 -52 -10 21 -2 4 6 -2 -11 -27 -7
000010 02 0d fc f7 0b d6 fa 0a 0c 17 03 7f 2b e5 2a 00
       2 13 -4 -9 11 -42 -6 10 12 23 3 127 43 -27 42 0
000020 06 0d 05 fd f4 09 d0 fc fc f9 08 2c 02 0f 12 03
       6 13 5 -3 -12 9 -48 -4 -4 -7 8 44 2 15 18 3
000030 26 05 ee 13 21 e7 f6 52 fc 08 e3 d7 f4 14 04 ed
       38 5 -18 19 33 -25 -10 82 -4 8 -29 -41 -12 20 4 -19
000040 e0 c6 ed 20 09 05 12 ef ee d4 fd f2 f1 17 fc 09
       -32 -58 -19 32 9 5 18 -17 -18 -44 -3 -14 -15 23 -4 9
000050 fb ed 19 13 01 ff fc ab 04 fb 02 02 34 de db f8
       -5 -19 25 19 1 -1 -4 -85 4 -5 2 2 52 -34 -37 -8
000060 18 c6 97 ba 7e e7 6a 0e da a4 d2 f7 05 08 b9 1c
       24 -58 -105 -70 126 -25 106 14 -38 -92 -46 -9 5 8 -71 28
000070 cc 0d 21 15 25 33 dc df 29 eb f1 b7 20 fa b5 26
       -52 13 33 21 37 51 -36 -33 41 -21 -15 -73 32 -6 -75 38
000080 d8 14 06 f9 f0 eb ea 19 e1 17 e4 de dc 59 1c f5
       -40 20 6 -7 -16 -21 -22 25 -31 23 -28 -34 -36 89 28 -11
000090 2c c8 1d ee db 18 33 0a b3 df e4 d3 04 ec fd cd
       44 -56 29 -18 -37 24 51 10 -77 -33 -28 -45 4 -20 -3 -51
0000a0 a1 68 f6 e3 0f ef f1 ff 31 81 e4 fc ff d5 19 14
       -95 104 -10 -29 15 -17 -15 -1 49 -127 -28 -4 -1 -43 25 20
0000b0 f1 f3 20 17 d4 1d e2 18 1d e6 e9 0b 32 14 11 7b
       -15 -13 32 23 -44 29 -30 24 29 -26 -23 11 50 20 17 123
0000c0 f4 4d b1 e6 60 48 0f 35 f1 94 11 12 10 02 13 f8
       -12 77 -79 -26 96 72 15 53 -15 -108 17 18 16 2 19 -8
0000d0 25 e5 dc 35 14 00 65 09 33 1e 18 db 2b 10 39 d5
       37 -27 -36 53 20 0 101 9 51 30 24 -37 43 16 57 -43
0000e0 05 39 dc 12 81 ab 0c 1a 07 b5 16 06 1e ca 0d 35
       5 57 -36 18 -127 -85 12 26 7 -75 22 6 30 -54 13 53
0000f0 07 24 d8 17 60 ec f3 45 04 fe 09 f8 06 0d 26 fe
       7 36 -40 23 96 -20 -13 69 4 -2 9 -8 6 13 38 -2

model_1/block_5_depthwise_BN/FusedBatchNormV3;model_1/block_5_depthwise/depthwise;model_1/block_6_expand/Conv2D i1 [1, 3, 3, 96]
000000 ce b9 f3 7f 17 49 51 c4 f1 ed f0 f6 e1 01 24 04
       -50 -71 -13 127 23 73 81 -60 -15 -19 -16 -10 -31 1 36 4
000010 f6 d4 1a 16 10 81 7f 04 b1 06 32 e4 82 81 25 18
       -10 -44 26 22 16 -127 127 4 -79 6 50 -28 -126 -127 37 24
000020 09 1a 3c ef e0 f8 20 f5 f2 1b 93 49 19 bb 24 2d
       9 26 60 -17 -32 -8 32 -11 -14 27 -109 73 25 -69 36 45
000030 ed 38 e7 14 02 f8 10 2f a5 d0 c6 ed f4 00 0b 25
       -19 56 -25 20 2 -8 16 47 -91 -48 -58 -19 -12 0 11 37
000040 49 e7 4c 0b f8 12 12 7f 18 19 16 ff f7 12 7f fa
       73 -25 76 11 -8 18 18 127 24 25 22 -1 -9 18 127 -6
000050 f3 10 e5 14 7f 0f b4 ef fd e2 f1 da 01 e9 f1 1a
       -13 16 -27 20 127 15 -76 -17 -3 -30 -15 -38 1 -23 -15 26
000060 7f 82 45 6b d6 7f 25 87 47 05 ee 7f 7f 9f f3 12
       127 -126 69 107 -42 127 37 -121 71 5 -18 127 127 -97 -13 18
000070 0a 7f 7f 90 7f b8 51 46 81 94 bf dd c8 2f c5 ee
       10 127 127 -112 127 -72 81 70 -127 -108 -65 -35 -56 47 -59 -18
000080 a9 36 81 ad d4 f3 c6 3d ff 7f 7f 54 ce 8c 90 cc
       -87 54 -127 -83 -44 -13 -58 61 -1 127 127 84 -50 -116 -112 -52
000090 f0 81 2a 52 3d e0 2f 53 cf 2a b6 90 d2 d5 c3 42
       -16 -127 42 82 61 -32 47 83 -49 42 -74 -112 -46 -43 -61 66
0000a0 4e c3 1b 1d af 23 ee 5a 7a 7f 09 12 05 3c e0 34
       78 -61 27 29 -81 35 -18 90 122 127 9 18 5 60 -32 52
0000b0 41 7f 7f e9 f8 49 92 7f 84 9d 05 81 a4 81 da 6a
       65 127 127 -23 -8 73 -110 127 -124 -99 5 -127 -92 -127 -38 106
0000c0 b1 f2 1a ac 0f e6 47 f8 50 dd e4 10 eb fe f8 f7
       -79 -14 26 -84 15 -26 71 -8 80 -35 -28 16 -21 -2 -8 -9
0000d0 f8 f1 08 fd e6 9d 1d fd 90 57 08 ca 72 32 f0 0a
       -8 -15 8 -3 -26 -99 29 -3 -112 87 8 -54 114 50 -16 10
0000e0 ff 0d 0f e3 f5 24 12 0c 18 0c 86 3f 12 ea 24 0d
       -1 13 15 -29 -11 36 18 12 24 12 -122 63 18 -22 36 13
0000f0 f1 0d f0 06 f6 00 ff 14 be 06 e0 33 01 28 22 fd
       -15 13 -16 6 -10 0 -1 20 -66 6 -32 51 1 40 34 -3

model_1/block_5_expand/Conv2D i1 [96, 1, 1, 16]
000000 12 4b e3 53 34 10 03 ed 2c 10 9e 51 fc 81 25 85
       18 75 -29 83 52 16 3 -19 44 16 -98 81 -4 -127 37 -123
000010 fc 47 fc e7 03 e7 7f 88 ec 6f ff d4 0a c9 11 13
       -4 71 -4 -25 3 -25 127 -120 -20 111 -1 -44 10 -55 17 19
000020 81 25 b2 c7 01 dd 4d 50 d7 39 76 d7 85 35 28 c4
       -127 37 -78 -57 1 -35 77 80 -41 57 118 -41 -123 53 40 -60
000030 ae 3f 41 37 bc 42 69 7f 14 59 ab 01 0e b1 c3 c0
       -82 63 65 55 -68 66 105 127 20 89 -85 1 14 -79 -61 -64
000040 0f f7 30 5f e1 49 fe 15 0e fb 07 06 19 fc 81 d5
       15 -9 48 95 -31 73 -2 21 14 -5 7 6 25 -4 -127 -43
000050 ff d7 39 f7 16 ec fc 12 c2 6e e0 81 01 1c d0 e0
       -1 -41 57 -9 22 -20 -4 18 -62 110 -32 -127 1 28 -48 -32
000060 f0 01 06 e1 25 3f af ae ed 08 3e e6 7f e7 f5 f0
       -16 1 6 -31 37 63 -81 -82 -19 8 62 -26 127 -25 -11 -16
000070 fd 16 7f f4 eb f4 fe e8 c2 19 c9 dc 13 f9 14 e3
       -3 22 127 -12 -21 -12 -2 -24 -62 25 -55 -36 19 -7 20 -29
000080 2b 26 3f 21 d5 40 11 27 1e f7 18 b4 e5 ee 81 b0
       43 38 63 33 -43 64 17 39 30 -9 24 -76 -27 -18 -127 -80
000090 30 95 40 2d 2d f3 f9 f7 7f f0 5c fb dc 07 8e e4
       48 -107 64 45 45 -13 -7 -9 127 -16 92 -5 -36 7 -114 -28
0000a0 b1 89 02 ef 8b 03 11 47 45 7f 21 dc eb 31 5d 00
       -79 -119 2 -17 -117 3 17 71 69 127 33 -36 -21 49 93 0
0000b0 04 be 17 a3 08 eb 99 81 c6 22 f1 bc 3e 02 36 dd
       4 -66 23 -93 8 -21 -103 -127 -58 34 -15 -68 62 2 54 -35
0000c0 e7 ff 05 ca d8 da 99 d6 b6 c3 ec 29 18 7f 63 2e
       -25 -1 5 -54 -40 -38 -103 -42 -74 -61 -20 41 24 127 99 46
0000d0 e5 be e0 41 fe bd f7 e2 6d 20 08 14 20 33 7f 18
       -27 -66 -32 65 -2 -67 -9 -30 109 32 8 20 32 51 127 24
0000e0 fb e1 34 08 13 2f 11 7f 19 48 10 f3 fe 20 d2 6f
       -5 -31 52 8 19 47 17 127 25 72 16 -13 -2 32 -46 111
0000f0 1b e1 ef 37 0c f5 5b 06 f1 81 00 d0 0b e6 06 ee
       27 -31 -17 55 12 -11 91 6 -15 -127 0 -48 11 -26 6 -18

model_1/block_4_project/Conv2D i1 [16, 1, 1, 96]
000000 fe 0f f5 14 25 3f e3 ef 2f 02 09 06 f9 0f 14 45
       -2 15 -11 20 37 63 -29 -17 47 2 9 6 -7 15 20 69
000010 01 01 f1 f3 55 d7 11 f4 ee e3 d4 a4 04 00 26 29
       1 1 -15 -13 85 -41 17 -12 -18 -29 -44 -92 4 0 38 41
000020 7f f5 06 06 fb fa ec 08 df 18 0c e6 1a ee fc 13
       127 -11 6 6 -5 -6 -20 8 -33 24 12 -26 26 -18 -4 19
000030 f0 1b 10 f6 dd f5 04 ff 28 18 f3 f0 d3 16 f6 fc
       -16 27 16 -10 -35 -11 4 -1 40 24 -13 -16 -45 22 -10 -4
000040 00 0d 36 09 09 0e 02 e7 bb f5 06 01 03 ad ff ef
       0 13 54 9 9 14 2 -25 -69 -11 6 1 3 -83 -1 -17
000050 27 f8 c3 d7 1f f2 01 1c 03 03 11 ed 18 25 ed 7d
       39 -8 -61 -41 31 -14 1 28 3 3 17 -19 24 37 -19 125
000060 45 ac 2a 52 0e b8 0a d2 de b0 f8 0d 07 c8 d3 c5
       69 -84 42 82 14 -72 10 -46 -34 -80 -8 13 7 -56 -45 -59
000070 9a f8 0c 1d d6 87 e3 07 7f bf b7 25 ed 4e f5 38
       -102 -8 12 29 -42 -121 -29 7 127 -65 -73 37 -19 78 -11 56
000080 f9 fb d0 13 e5 e1 37 d9 fb a3 5b f2 b7 03 3b 01
       -7 -5 -48 19 -27 -31 55 -39 -5 -93 91 -14 -73 3 59 1
000090 17 05 e2 b5 38 bd 37 d1 04 13 ef 93 15 d4 12 b4
       23 5 -30 -75 56 -67 55 -47 4 19 -17 -109 21 -44 18 -76
0000a0 04 ba 22 24 2e 3c dc fd 8a 19 ea 3d 14 52 06 f9
       4 -70 34 36 46 60 -36 -3 -118 25 -22 61 20 82 6 -7
0000b0 34 fd c8 1b ae 45 f9 34 cc 2a 19 00 fe cf 30 05
       52 -3 -56 27 -82 69 -7 52 -52 42 25 0 -2 -49 48 5
0000c0 25 1f ff ee 10 f3 04 24 42 ec f8 31 fd 11 3b 04
       37 31 -1 -18 16 -13 4 36 66 -20 -8 49 -3 17 59 4
0000d0 f2 ef 05 ef e2 b6 0c b8 f3 ec e3 14 f2 0b 77 c6
       -14 -17 5 -17 -30 -74 12 -72 -13 -20 -29 20 -14 11 119 -58
0000e0 09 a1 f0 45 16 7f d3 e2 ef f7 08 41 dc d5 c5 0a
       9 -95 -16 69 22 127 -45 -30 -17 -9 8 65 -36 -43 -59 10
0000f0 1b 20 c6 d9 0e 03 0c e7 eb fc fb 15 ed 0b 4c 6c
       27 32 -58 -39 14 3 12 -25 -21 -4 -5 21 -19 11 76 108

model_1/block_4_depthwise_BN/FusedBatchNormV3;model_1/block_4_depthwise/depthwise;model_1/block_6_expand/Conv2D i1 [1, 3, 3, 96]
000000 ed 06 ea 6b ef 17 c5 c9 10 f8 63 f7 05 f8 fb 37
       -19 6 -22 107 -17 23 -59 -55 16 -8 99 -9 5 -8 -5 55
000010 07 0f e2 01 49 05 21 e0 01 11 2d 2f 15 10 17 32
       7 15 -30 1 73 5 33 -32 1 17 45 47 21 16 23 50
000020 fb 1c 0a f1 03 30 c6 e6 15 08 1b 13 aa c9 1b fa
       -5 28 10 -15 3 48 -58 -26 21 8 27 19 -86 -55 27 -6
000030 f4 ed f9 f9 33 04 f8 00 fd e0 1b e0 1b fe 7f 1b
       -12 -19 -7 -7 51 4 -8 0 -3 -32 27 -32 27 -2 127 27
000040 f3 f5 09 cc 44 22 01 fa 4f e0 46 04 10 81 1f 42
       -13 -11 9 -52 68 34 1 -6 79 -32 70 4 16 -127 31 66
000050 02 0f 7f f2 26 1b e5 ef 25 fa f1 51 00 15 ff 0d
       2 15 127 -14 38 27 -27 -17 37 -6 -15 81 0 21 -1 13
000060 cf 0b f6 0b 35 f7 f7 81 26 0b 81 fb f3 f3 03 5f
       -49 11 -10 11 53 -9 -9 -127 38 11 -127 -5 -13 -13 3 95
000070 10 e2 f4 ef 4b 9e 7f 1c c3 e0 96 ef 1e 23 ce 11
       16 -30 -12 -17 75 -98 127 28 -61 -32 -106 -17 30 35 -50 17
000080 79 0c f1 fe e6 7f c1 81 08 ee e2 0f 2d 81 7f d3
       121 12 -15 -2 -26 127 -63 -127 8 -18 -30 15 45 -127 127 -45
000090 b3 38 32 06 28 be 20 37 25 29 99 55 7f 23 04 ec
       -77 56 50 6 40 -66 32 55 37 41 -103 85 127 35 4 -20
0000a0 2c d9 a3 fd 25 e1 ee 2f cd cf 6b fc e3 c6 df 41
       44 -39 -93 -3 37 -31 -18 47 -51 -49 107 -4 -29 -58 -33 65
0000b0 c3 3f ee 08 f5 2d 35 da e7 35 f3 49 81 e1 18 81
       -61 63 -18 8 -11 45 53 -38 -25 53 -13 73 -127 -31 24 -127
0000c0 00 fa e8 b6 07 13 26 17 fc fc 02 3c 03 f3 f4 05
       0 -6 -24 -74 7 19 38 23 -4 -4 2 60 3 -13 -12 5
0000d0 f0 10 f4 0f 04 18 19 e2 00 e0 0b 0c f9 09 2e b1
       -16 16 -12 15 4 24 25 -30 0 -32 11 12 -7 9 46 -79
0000e0 2c 12 08 e9 0a 02 e2 ed 07 03 f0 08 14 e3 16 01
       44 18 8 -23 10 2 -30 -19 7 3 -16 8 20 -29 22 1
0000f0 06 fd 05 fb 06 04 fc 07 f8 2b 07 fe 0a ed 01 ee
       6 -3 5 -5 6 4 -4 7 -8 43 7 -2 10 -19 1 -18

model_1/block_4_expand/Conv2D i1 [96, 1, 1, 16]
000000 24 b7 7d 7f 65 cd 14 b8 71 b4 97 ab 42 77 ea 96
       36 -73 125 127 101 -51 20 -72 113 -76 -105 -85 66 119 -22 -106
000010 2f 25 ce eb 47 dc 27 35 16 4b ae 7f e3 f4 54 cf
       47 37 -50 -21 71 -36 39 53 22 75 -82 127 -29 -12 84 -49
000020 26 d1 35 fc d0 21 d8 53 ba ae 11 5a f2 81 5c 86
       38 -47 53 -4 -48 33 -40 83 -70 -82 17 90 -14 -127 92 -122
000030 70 6d ef 14 81 dd cf f4 eb f4 64 d3 bb 5d cf ee
       112 109 -17 20 -127 -35 -49 -12 -21 -12 100 -45 -69 93 -49 -18
000040 f1 fd fd 0e d6 10 f6 2f b3 e7 03 ff 03 81 14 00
       -15 -3 -3 14 -42 16 -10 47 -77 -25 3 -1 3 -127 20 0
000050 64 d0 ed f3 03 9c ca fd 07 f6 81 ee 0d 02 0b 1a
       100 -48 -19 -13 3 -100 -54 -3 7 -10 -127 -18 13 2 11 26
000060 94 ab df 67 be f1 d5 3d 84 a8 ad da 41 65 06 7f
       -108 -85 -33 103 -66 -15 -43 61 -124 -88 -83 -38 65 101 6 127
000070 ed 0f b9 45 31 81 dc 2d 16 d8 10 04 07 27 d0 0e
       -19 15 -71 69 49 -127 -36 45 22 -40 16 4 7 39 -48 14
000080 19 c8 ea f3 05 13 cf ce ed 0f c4 0c 81 fd fe 1c
       25 -56 -22 -13 5 19 -49 -50 -19 15 -60 12 -127 -3 -2 28
000090 0f dc 4c 72 00 22 f4 92 7f 9d 1b cf f5 37 ac 09
       15 -36 76 114 0 34 -12 -110 127 -99 27 -49 -11 55 -84 9
0000a0 84 bd ed da 7c 1d 30 34 7f dc 9b 30 52 b9 a6 53
       -124 -67 -19 -38 124 29 48 52 127 -36 -101 48 82 -71 -90 83
0000b0 29 f0 81 16 34 1d eb 2c fb d3 f0 f2 0b 15 d5 0f
       41 -16 -127 22 52 29 -21 44 -5 -45 -16 -14 11 21 -43 15
0000c0 64 b3 f9 0d fe ac c3 d3 25 fd 81 f1 ca e5 f4 37
       100 -77 -7 13 -2 -84 -61 -45 37 -3 -127 -15 -54 -27 -12 55
0000d0 26 b5 25 a0 56 2b 93 ba 21 81 1a 0e 16 f0 32 16
       38 -75 37 -96 86 43 -109 -70 33 -127 26 14 22 -16 50 22
0000e0 c8 20 9c d8 4e 81 40 c8 38 32 ef a2 22 6c fa 1c
       -56 32 -100 -40 78 -127 64 -56 56 50 -17 -94 34 108 -6 28
0000f0 0a e9 34 15 23 cf e1 ea 03 d4 c7 fd 81 d6 f7 3a
       10 -23 52 21 35 -49 -31 -22 3 -44 -57 -3 -127 -42 -9 58

model_1/block_3_project/Conv2D i1 [16, 1, 1, 48]
000000 ee 00 eb 0e 19 00 fd 68 c9 15 2a fa 10 f5 eb 0d
       -18 0 -21 14 25 0 -3 104 -55 21 42 -6 16 -11 -21 13
000010 19 ed f6 fb 3e ec 11 7f f3 49 fa f6 1b f3 1c dd
       25 -19 -10 -5 62 -20 17 127 -13 73 -6 -10 27 -13 28 -35
000020 ee 36 16 cb 16 29 17 ee 9c ec 07 2e 23 1d 84 ce
       -18 54 22 -53 22 41 23 -18 -100 -20 7 46 35 29 -124 -50
000030 dc f2 0a 07 e1 0b 05 37 ce e6 ff d9 ea f4 00 f5
       -36 -14 10 7 -31 11 5 55 -50 -26 -1 -39 -22 -12 0 -11
000040 df 7b f1 0b 05 10 e5 eb 19 dc 17 1d e1 ae dd 19
       -33 123 -15 11 5 16 -27 -21 25 -36 23 29 -31 -82 -35 25
000050 ed f8 18 f9 f3 df 03 18 e5 e3 7f 01 10 f9 13 fa
       -19 -8 24 -7 -13 -33 3 24 -27 -29 127 1 16 -7 19 -6
000060 ea fc ef de fa bf 05 e9 04 0a 0f 1d 0e 0c f9 07
       -22 -4 -17 -34 -6 -65 5 -23 4 10 15 29 14 12 -7 7
000070 f6 ec ee f0 01 04 fe 81 f6 4b f2 02 fc eb ff f5
       -10 -20 -18 -16 1 4 -2 -127 -10 75 -14 2 -4 -21 -1 -11
000080 fd 34 0b 00 16 0a 18 01 d5 06 f2 f6 fd f5 10 02
       -3 52 11 0 22 10 24 1 -43 6 -14 -10 -3 -11 16 2
000090 fc 1d 01 e3 fd fb 09 ff ed fb fd 28 81 03 fd fc
       -4 29 1 -29 -3 -5 9 -1 -19 -5 -3 40 -127 3 -3 -4
0000a0 02 0a f1 fa df 09 07 16 fb f2 03 16 f5 14 04 17
       2 10 -15 -6 -33 9 7 22 -5 -14 3 22 -11 20 4 23
0000b0 03 06 10 18 f7 1c 28 0b 0f 04 21 e2 0a fa 04 11
       3 6 16 24 -9 28 40 11 15 4 33 -30 10 -6 4 17
0000c0 2a e1 0c 09 17 15 13 e5 dd f8 ef e8 01 10 01 12
       42 -31 12 9 23 21 19 -27 -35 -8 -17 -24 1 16 1 18
0000d0 1a f5 b6 06 fd 05 0f 4c 01 ec 01 2c 0a b2 15 ff
       26 -11 -74 6 -3 5 15 76 1 -20 1 44 10 -78 21 -1
0000e0 07 dc 28 81 0e 25 f9 10 ee 10 0b ed f7 f1 01 03
       7 -36 40 -127 14 37 -7 16 -18 16 11 -19 -9 -15 1 3
0000f0 1e fe eb 3d ff f6 0a 19 ff fc 26 09 06 31 ff 01
       30 -2 -21 61 -1 -10 10 25 -1 -4 38 9 6 49 -1 1

model_1/block_3_depthwise_BN/FusedBatchNormV3;model_1/block_3_depthwise/depthwise i1 [1, 3, 3, 48]
000000 47 a2 61 47 34 de 6b c1 3e a5 ae 2f 36 d4 b8 a6
       71 -94 97 71 52 -34 107 -63 62 -91 -82 47 54 -44 -72 -90
000010 67 4c 31 4d 43 b9 af 34 df d8 c1 c0 bd 3f c2 90
       103 76 49 77 67 -71 -81 52 -33 -40 -63 -64 -67 63 -62 -112
000020 f1 29 46 41 c0 36 cd e8 33 b6 3b 3d a5 0b 4c de
       -15 41 70 65 -64 54 -51 -24 51 -74 59 61 -91 11 76 -34
000030 52 a0 7f 57 b1 bc c8 ac 63 96 c2 4a 52 8f a0 5b
       82 -96 127 87 -79 -68 -56 -84 99 -106 -62 74 82 -113 -96 91
000040 d7 60 53 7f 56 90 36 47 cc b2 bb b0 37 4f e3 81
       -41 96 83 127 86 -112 54 71 -52 -78 -69 -80 55 79 -29 -127
000050 ad 4f 50 55 af 52 ad ef 4c a3 53 58 b8 81 5e 9a
       -83 79 80 85 -81 82 -83 -17 76 -93 83 88 -72 -127 94 -102
000060 24 d3 49 25 11 d7 d1 da 2b dd 06 22 1e b0 c8 fe
       36 -45 73 37 17 -41 -47 -38 43 -35 6 34 30 -80 -56 -2
000070 ca 24 23 46 21 cb 20 1a e3 d1 d4 e8 1f 1f 57 a7
       -54 36 35 70 33 -53 32 26 -29 -47 -44 -24 31 31 87 -89
000080 af 2c 22 23 e2 26 db f5 2a d9 23 2b fb f6 25 b7
       -81 44 34 35 -30 38 -37 -11 42 -39 35 43 -5 -10 37 -73
000090 5f 8e d5 5d 37 af 7f a7 59 8c b9 51 54 90 f2 81
       95 -114 -43 93 55 -81 127 -89 89 -116 -71 81 84 -112 -14 -127
0000a0 7f 6a 4a d8 54 6b 81 4a 47 b4 9f 9e 81 56 bc f9
       127 106 74 -40 84 107 -127 74 71 -76 -97 -98 -127 86 -68 -7
0000b0 a9 47 6c 61 ab 4e af 59 53 9a 58 59 a8 6a 5e a3
       -87 71 108 97 -85 78 -81 89 83 -102 88 89 -88 106 94 -93
0000c0 7f 81 be 7f 81 81 a6 81 7f 81 81 7f 7f 81 e8 61
       127 -127 -66 127 -127 -127 -90 -127 127 -127 -127 127 127 -127 -24 97
0000d0 bd 7f 7f ca 7f 7f 46 7f 7f 81 81 81 34 7f e5 11
       -67 127 127 -54 127 127 70 127 127 -127 -127 -127 52 127 -27 17
0000e0 81 7f 7f 7f 81 7f 81 7f 7f 81 7f 7f 81 f4 7f 81
       -127 127 127 127 -127 127 -127 127 127 -127 127 127 -127 -12 127 -127
0000f0 42 b3 df 42 23 c2 d2 c2 38 d5 c5 3b 30 cb ef 0b
       66 -77 -33 66 35 -62 -46 -62 56 -43 -59 59 48 -53 -17 11

model_1/block_3_expand/Conv2D i1 [48, 1, 1, 8]
000000 81 fc fb 3d da 32 19 e2 1a 49 3e 16 01 d5 65 7f
       -127 -4 -5 61 -38 50 25 -30 26 73 62 22 1 -43 101 127
000010 d5 f6 fa 00 81 02 10 0a 5f ff 05 86 81 1c 35 ea
       -43 -10 -6 0 -127 2 16 10 95 -1 5 -122 -127 28 53 -22
000020 81 3c f5 fe 48 de 3c 26 9c df 0c fa 81 13 17 5b
       -127 60 -11 -2 72 -34 60 38 -100 -33 12 -6 -127 19 23 91
000030 f4 81 15 f3 00 00 fc 21 c3 f7 05 5f 7f d6 dc 04
       -12 -127 21 -13 0 0 -4 33 -61 -9 5 95 127 -42 -36 4
000040 56 00 ff 81 f8 ef d4 df e7 81 f9 06 fc 66 cc 67
       86 0 -1 -127 -8 -17 -44 -33 -25 -127 -7 6 -4 102 -52 103
000050 94 05 ff 15 81 57 3a ed 76 05 31 11 c9 c6 df 81
       -108 5 -1 21 -127 87 58 -19 118 5 49 17 -55 -58 -33 -127
000060 04 13 3b 01 0d a9 7f 44 39 df fe ed 7c 7f 52 cf
       4 19 59 1 13 -87 127 68 57 -33 -2 -19 124 127 82 -49
000070 7f 37 f4 06 9a e8 e8 fe ef 81 06 f4 ef 01 0f 2c
       127 55 -12 6 -102 -24 -24 -2 -17 -127 6 -12 -17 1 15 44
000080 ce e3 02 02 81 10 09 04 e2 71 87 0f 0f 81 74 a5
       -50 -29 2 2 -127 16 9 4 -30 113 -121 15 15 -127 116 -91
000090 7f d5 d2 0e b3 23 0b 72 7f b8 eb fa 3f 0d 21 03
       127 -43 -46 14 -77 35 11 114 127 -72 -21 -6 63 13 33 3
0000a0 7f 17 ed 67 03 20 fb ca 15 1e b1 06 d3 65 81 af
       127 23 -19 103 3 32 -5 -54 21 30 -79 6 -45 101 -127 -81
0000b0 81 14 14 f9 c6 f6 d6 f6 d3 ca 06 13 81 3e 4c ef
       -127 20 20 -7 -58 -10 -42 -10 -45 -54 6 19 -127 62 76 -17
0000c0 7f 00 fa f5 a2 eb f9 09 1a f1 05 ec 7f 2a 2b de
       127 0 -6 -11 -94 -21 -7 9 26 -15 5 -20 127 42 43 -34
0000d0 11 9a fb e0 0d 81 55 d0 f1 81 1a ef 00 cb 1f f7
       17 -102 -5 -32 13 -127 85 -48 -15 -127 26 -17 0 -53 31 -9
0000e0 9b 05 f7 19 fd e5 7f 55 f3 2a 05 04 0a 2e 8a 81
       -101 5 -9 25 -3 -27 127 85 -13 42 5 4 10 46 -118 -127
0000f0 7f d8 0b ff 91 16 b3 de 02 d5 53 df 19 81 6b 54
       127 -40 11 -1 -111 22 -77 -34 2 -43 83 -33 25 -127 107 84

model_1/block_2_project/Conv2D i1 [8, 1, 1, 48]
000000 c4 eb e0 0a 0d e2 fa f4 90 7f d5 62 6c 0a 52 f1
       -60 -21 -32 10 13 -30 -6 -12 -112 127 -43 98 108 10 82 -15
000010 fb e0 0b 02 06 02 dc d8 19 9f 0c 34 ee 0c 0a de
       -5 -32 11 2 6 2 -36 -40 25 -97 12 52 -18 12 10 -34
000020 f7 c6 7f 17 f4 00 08 f4 7f 0c 27 e0 df 18 f1 ee
       -9 -58 127 23 -12 0 8 -12 127 12 39 -32 -33 24 -15 -18
000030 fd 24 7e 09 f6 e4 04 b3 22 04 1a 05 eb 02 f8 81
       -3 36 126 9 -10 -28 4 -77 34 4 26 5 -21 2 -8 -127
000040 0b c2 0d 03 de 21 16 e4 e8 fd 10 02 0e f4 0f fb
       11 -62 13 3 -34 33 22 -28 -24 -3 16 2 14 -12 15 -5
000050 03 0c 14 08 e6 e0 46 c5 0c 2e f2 20 f4 0a 0f f8
       3 12 20 8 -26 -32 70 -59 12 46 -14 32 -12 10 15 -8
000060 02 d3 12 dc 20 17 fc e9 09 02 fd 0d f3 36 06 01
       2 -45 18 -36 32 23 -4 -23 9 2 -3 13 -13 54 6 1
000070 da 7f e9 da ef 10 dc f8 72 03 07 ff e3 fc 01 d6
       -38 127 -23 -38 -17 16 -36 -8 114 3 7 -1 -29 -4 1 -42
000080 f8 ef 03 09 f7 f8 f9 08 13 ea f1 fe 00 1b e2 df
       -8 -17 3 9 -9 -8 -7 8 19 -22 -15 -2 0 27 -30 -33
000090 f7 b0 03 08 05 fb f4 06 f9 f4 11 11 07 f6 2c 07
       -9 -80 3 8 5 -5 -12 6 -7 -12 17 17 7 -10 44 7
0000a0 fb eb 02 0f f9 17 ef 00 06 3b fc 06 fb fe 7f 03
       -5 -21 2 15 -7 23 -17 0 6 59 -4 6 -5 -2 127 3
0000b0 14 fe f8 fd e1 f6 f7 11 f7 03 f3 1d ed fb fe 20
       20 -2 -8 -3 -31 -10 -9 17 -9 3 -13 29 -19 -5 -2 32
0000c0 97 07 06 07 04 ce 03 03 27 d9 0b f4 ea 04 fe f8
       -105 7 6 7 4 -50 3 3 39 -39 11 -12 -22 4 -2 -8
0000d0 0b 10 00 20 11 de 03 fd ff 25 07 77 03 05 00 d8
       11 16 0 32 17 -34 3 -3 -1 37 7 119 3 5 0 -40
0000e0 01 81 ea 0e 00 fc 0d fc d3 ff fb 0c c9 0e 00 09
       1 -127 -22 14 0 -4 13 -4 -45 -1 -5 12 -55 14 0 9
0000f0 ec 27 17 0a d2 1a fc 31 15 04 14 04 f8 ca 05 1a
       -20 39 23 10 -46 26 -4 49 21 4 20 4 -8 -54 5 26

model_1/block_2_depthwise_BN/FusedBatchNormV3;model_1/block_2_depthwise/depthwise;model_1/block_3_depthwise/depthwise i1 [1, 3, 3, 48]
000000 03 fc 14 6d 04 50 ff 1b 10 07 0a 07 f8 f8 d4 08
       3 -4 20 109 4 80 -1 27 16 7 10 7 -8 -8 -44 8
000010 fe 08 e8 90 f8 e9 7f f6 fe 07 fa 09 fc 06 0f 61
       -2 8 -24 -112 -8 -23 127 -10 -2 7 -6 9 -4 6 15 97
000020 15 1c 25 e6 01 23 fe 03 12 bd f7 f8 11 03 fa f5
       21 28 37 -26 1 35 -2 3 18 -67 -9 -8 17 3 -6 -11
000030 7f 09 0f 81 1b 59 0c 0a 7f 7f 08 2b cc e9 06 07
       127 9 15 -127 27 89 12 10 127 127 8 43 -52 -23 6 7
000040 7f c8 c3 c9 9b 1a 91 0e 11 48 df ac 18 16 0a 83
       127 -56 -61 -55 -101 26 -111 14 17 72 -33 -84 24 22 10 -125
000050 06 c3 7f 0a d9 d2 f9 75 b1 a0 e1 04 df f8 81 16
       6 -61 127 10 -39 -46 -7 117 -79 -96 -31 4 -33 -8 -127 22
000060 e1 fc 07 0e 00 41 05 11 1d 08 f2 20 f0 fd 10 03
       -31 -4 7 14 0 65 5 17 29 8 -14 32 -16 -3 16 3
000070 99 1d fc 4d e0 f4 ed fa fc c6 fc 1d ef 06 05 ea
       -103 29 -4 77 -32 -12 -19 -6 -4 -58 -4 29 -17 6 5 -22
000080 07 e8 11 ed 00 31 29 f4 32 26 f0 0c d6 03 ff f9
       7 -24 17 -19 0 49 41 -12 50 38 -16 12 -42 3 -1 -7
000090 7e 06 01 9e 0e e2 23 ef 0a 09 f5 35 fa 00 13 df
       126 6 1 -98 14 -30 35 -17 10 9 -11 53 -6 0 19 -33
0000a0 00 cf c3 ab 0a b5 81 ee 05 64 f1 81 f9 21 0b 94
       0 -49 -61 -85 10 -75 -127 -18 5 100 -15 -127 -7 33 11 -108
0000b0 11 cc fe 7f fd 3c d7 2a c2 81 27 a8 d5 f2 f4 fb
       17 -52 -2 127 -3 60 -41 42 -62 -127 39 -88 -43 -14 -12 -5
0000c0 1c 81 81 73 81 81 81 81 81 a2 7f 81 7f 7f 23 81
       28 -127 -127 115 -127 -127 -127 -127 -127 -94 127 -127 127 127 35 -127
0000d0 ad 7f 7f 97 7f 7f 70 7f 7f 81 81 1c 81 81 5e 7f
       -83 127 127 -105 127 127 112 127 127 -127 -127 28 -127 -127 94 127
0000e0 81 7f e5 d7 7f 81 7f 7f 7f b1 7f 7f 7f 88 69 6a
       -127 127 -27 -41 127 -127 127 127 127 -79 127 127 127 -120 105 106
0000f0 37 05 30 f2 05 c4 2d 12 e9 0f 99 f9 00 d8 7f 04
       55 5 48 -14 5 -60 45 18 -23 15 -103 -7 0 -40 127 4

model_1/block_2_expand/Conv2D i1 [48, 1, 1, 8]
000000 57 3a fe f8 7f 2a b7 d1 eb 07 01 7f 15 f0 00 15
       87 58 -2 -8 127 42 -73 -47 -21 7 1 127 21 -16 0 21
000010 16 81 f8 32 f8 b9 51 0a 7f ed f9 15 f4 dc 13 01
       22 -127 -8 50 -8 -71 81 10 127 -19 -7 21 -12 -36 19 1
000020 0a c7 7f f3 f3 d0 14 9b 42 f6 02 f9 7f 12 e9 fa
       10 -57 127 -13 -13 -48 20 -101 66 -10 2 -7 127 18 -23 -6
000030 03 5e e0 7f 16 3b a0 c2 f4 7f fc fc 00 f3 0f fe
       3 94 -32 127 22 59 -96 -62 -12 127 -4 -4 0 -13 15 -2
000040 7f 44 05 09 ae e4 f4 d9 81 20 f9 1d 36 07 01 ee
       127 68 5 9 -82 -28 -12 -39 -127 32 -7 29 54 7 1 -18
000050 bb fd 13 7f 1e 18 f7 08 81 06 11 c0 25 0c ed ca
       -69 -3 19 127 30 24 -9 8 -127 6 17 -64 37 12 -19 -54
000060 7f 16 02 1a cd f5 02 d9 f6 41 81 fb 04 5f b5 4d
       127 22 2 26 -51 -11 2 -39 -10 65 -127 -5 4 95 -75 77
000070 af dd ef 7f 2c 08 0f f3 f7 7f 05 fe 02 f4 08 c8
       -81 -35 -17 127 44 8 15 -13 -9 127 5 -2 2 -12 8 -56
000080 d4 87 ed f9 dd 81 6b e3 13 7f ff f0 0e 4f a6 eb
       -44 -121 -19 -7 -35 -127 107 -29 19 127 -1 -16 14 79 -90 -21
000090 f9 2e 81 03 0c 36 de 42 b8 09 0b 12 81 06 0b 3b
       -7 46 -127 3 12 54 -34 66 -72 9 11 18 -127 6 11 59
0000a0 81 e4 04 02 2e eb 32 08 c1 ea 01 00 81 10 fd 01
       -127 -28 4 2 46 -21 50 8 -63 -22 1 0 -127 16 -3 1
0000b0 81 ed 08 00 41 eb 24 3b ea f0 fc f7 fd 51 81 9c
       -127 -19 8 0 65 -21 36 59 -22 -16 -4 -9 -3 81 -127 -100
0000c0 fa 27 81 05 0e 37 e4 55 4d d3 05 7f a8 09 24 cd
       -6 39 -127 5 14 55 -28 85 77 -45 5 127 -88 9 36 -51
0000d0 fe f0 01 ff fd 7f 7e de 4c f2 0a 16 7f 30 23 e7
       -2 -16 1 -1 -3 127 126 -34 76 -14 10 22 127 48 35 -25
0000e0 01 75 bb 02 05 49 e3 7f f4 03 05 fd fe 51 81 be
       1 117 -69 2 5 73 -29 127 -12 3 5 -3 -2 81 -127 -66
0000f0 00 f8 00 81 f8 fa fc f8 ca 00 fe 06 81 fa 0a 0b
       0 -8 0 -127 -8 -6 -4 -8 -54 0 -2 6 -127 -6 10 11

model_1/block_1_project/Conv2D i1 [8, 1, 1, 48]
000000 f7 02 07 9f 09 19 09 07 03 02 02 fc 64 00 02 08
       -9 2 7 -97 9 25 9 7 3 2 2 -4 100 0 2 8
000010 00 f8 fb 00 49 fe fd 04 20 28 0c 0f ff 05 05 81
       0 -8 -5 0 73 -2 -3 4 32 40 12 15 -1 5 5 -127
000020 0d 06 fd ff e5 f7 fb 1f 0b e7 fc 00 06 ff 05 05
       13 6 -3 -1 -27 -9 -5 31 11 -25 -4 0 6 -1 5 5
000030 dd fc fd fe 2d 1b e0 4f 11 09 e5 e5 0a 00 12 26
       -35 -4 -3 -2 45 27 -32 79 17 9 -27 -27 10 0 18 38
000040 00 2c 0f d2 ff 17 7f 15 e3 01 3b 05 14 fc 0e f9
       0 44 15 -46 -1 23 127 21 -29 1 59 5 20 -4 14 -7
000050 0e f8 f9 f2 05 c3 0a 02 fa fa ac f9 da 0a cc a0
       14 -8 -7 -14 5 -61 10 2 -6 -6 -84 -7 -38 10 -52 -96
000060 c4 0d fd 0f 2a f4 1d 14 f7 39 09 f7 01 00 05 30
       -60 13 -3 15 42 -12 29 20 -9 57 9 -9 1 0 5 48
000070 00 0b 81 16 fd 0b 02 f1 df 01 1f fd 0b 20 14 03
       0 11 -127 22 -3 11 2 -15 -33 1 31 -3 11 32 20 3
000080 06 f9 f3 f8 0f 0b fb 01 24 fd e5 00 18 cd 1c 10
       6 -7 -13 -8 15 11 -5 1 36 -3 -27 0 24 -51 28 16
000090 04 02 ff 0a fd 15 03 00 42 11 f9 00 18 00 e8 fa
       4 2 -1 10 -3 21 3 0 66 17 -7 0 24 0 -24 -6
0000a0 00 05 fa ff fb 04 05 f4 f7 f7 f4 fb fd fe fe f7
       0 5 -6 -1 -5 4 5 -12 -9 -9 -12 -5 -3 -2 -2 -9
0000b0 cc 2e cb ff 0c fd 03 81 fb 08 fe d1 fe fd 00 03
       -52 46 -53 -1 12 -3 3 -127 -5 8 -2 -47 -2 -3 0 3
0000c0 ff f8 4e 20 03 ee fd fe 06 f9 01 f8 b3 00 f3 04
       -1 -8 78 32 3 -18 -3 -2 6 -7 1 -8 -77 0 -13 4
0000d0 00 04 05 00 43 02 fe fa f2 27 fe 2b f5 fd 00 63
       0 4 5 0 67 2 -2 -6 -14 39 -2 43 -11 -3 0 99
0000e0 06 03 00 00 0b ee fe f0 fb 81 02 00 02 fc 00 02
       6 3 0 0 11 -18 -2 -16 -5 -127 2 0 2 -4 0 2
0000f0 f5 2d 06 f9 03 30 1a 0b eb 20 06 3a 1d 00 81 ff
       -11 45 6 -7 3 48 26 11 -21 32 6 58 29 0 -127 -1

model_1/block_1_depthwise_BN/FusedBatchNormV3;model_1/block_1_depthwise/depthwise;model_1/block_3_depthwise/depthwise i1 [1, 3, 3, 48]
000000 d5 ea fa ee 07 d9 b2 bb e6 cf 08 44 23 b9 72 d5
       -43 -22 -6 -18 7 -39 -78 -69 -26 -49 8 68 35 -71 114 -43
000010 8f ad 24 f8 00 b7 91 b1 dd 82 c2 eb 46 0f 5f 1a
       -113 -83 36 -8 0 -73 -111 -79 -35 -126 -62 -21 70 15 95 26
000020 81 a7 fa 35 11 30 81 4f b4 f2 6a 91 fd dc a8 6e
       -127 -89 -6 53 17 48 -127 79 -76 -14 106 -111 -3 -36 -88 110
000030 4c 0c e4 e4 3a 81 81 ad 3b b4 8b 6d 26 ae ff 3e
       76 12 -28 -28 58 -127 -127 -83 59 -76 -117 109 38 -82 -1 62
000040 cc 91 3b 07 0b 91 81 b9 fb 81 89 d7 ca 14 c7 36
       -52 -111 59 7 11 -111 -127 -71 -5 -127 -119 -41 -54 20 -57 54
000050 1c 81 41 54 0c 49 a3 7f 81 06 7d 81 01 e9 81 61
       28 -127 65 84 12 73 -93 127 -127 6 125 -127 1 -23 -127 97
000060 e1 2b 07 fa c0 93 c5 ef 58 f7 81 26 08 b9 9b f6
       -31 43 7 -6 -64 -109 -59 -17 88 -9 -127 38 8 -71 -101 -10
000070 81 e7 1b 0c f1 b4 dc e8 f5 e4 c6 f4 f6 10 e8 0a
       -127 -25 27 12 -15 -76 -36 -24 -11 -28 -58 -12 -10 16 -24 10
000080 6b a9 46 1f 0d 25 fa 10 b2 02 07 b1 ee 05 c9 10
       107 -87 70 31 13 37 -6 16 -78 2 7 -79 -18 5 -55 16
000090 aa 81 d4 d3 f6 37 63 96 e6 93 eb 75 5a c0 1a a0
       -86 -127 -44 -45 -10 55 99 -106 -26 -109 -21 117 90 -64 26 -96
0000a0 87 a1 58 b3 29 a7 9a 81 2a 87 b3 d9 7f c4 7f 53
       -121 -95 88 -77 41 -89 -102 -127 42 -121 -77 -39 127 -60 127 83
0000b0 d4 aa f1 55 dd b3 94 5a 28 3c 69 91 a4 89 51 78
       -44 -86 -15 85 -35 -77 -108 90 40 60 105 -111 -92 -119 81 120
0000c0 7f ae 81 81 7f 29 5d 81 64 81 91 7f 7f f2 f9 7f
       127 -82 -127 -127 127 41 93 -127 100 -127 -111 127 127 -14 -7 127
0000d0 c4 81 7f 81 7f 81 89 88 7f 9c 81 81 88 81 b9 7f
       -60 -127 127 -127 127 -127 -119 -120 127 -100 -127 -127 -120 -127 -71 127
0000e0 1c 90 7f 7f bc 81 9e 5b 3c 7f 7f 8a 8e 81 7c 7f
       28 -112 127 127 -68 -127 -98 91 60 127 127 -118 -114 -127 124 127
0000f0 cb 20 c3 aa 89 e9 1f db 7f ec b4 22 37 ba e6 d5
       -53 32 -61 -86 -119 -23 31 -37 127 -20 -76 34 55 -70 -26 -43

model_1/block_1_expand/Conv2D i1 [48, 1, 1, 8]
000000 12 81 34 d5 1e ed d1 18 46 4b e2 9a 19 f5 a3 7f
       18 -127 52 -43 30 -19 -47 24 70 75 -30 -102 25 -11 -93 127
000010 22 05 d2 7c 39 7f 33 62 4b 44 b3 7f a8 fc f4 0c
       34 5 -46 124 57 127 51 98 75 68 -77 127 -88 -4 -12 12
000020 de a0 53 15 10 17 d7 81 13 07 e2 31 fa e3 2a 7f
       -34 -96 83 21 16 23 -41 -127 19 7 -30 49 -6 -29 42 127
000030 34 f1 81 b4 72 03 33 f0 7f 12 15 eb 1c f6 4e c2
       52 -15 -127 -76 114 3 51 -16 127 18 21 -21 28 -10 78 -62
000040 17 a2 08 72 06 15 f4 81 62 8e 17 fe ec 01 81 50
       23 -94 8 114 6 21 -12 -127 98 -114 23 -2 -20 1 -127 80
000050 81 dd 91 0f fb 03 91 3a e9 da fc 9c 81 db 31 f0
       -127 -35 -111 15 -5 3 -111 58 -23 -38 -4 -100 -127 -37 49 -16
000060 0e 04 da 4b b7 ea 3d 7f 00 00 00 00 00 00 00 00
       14 4 -38 75 -73 -22 61 127 0 0 0 0 0 0 0 0
000070 fc dd f7 0d 37 7f 2c 2d 26 05 0b 81 46 30 c8 46
       -4 -35 -9 13 55 127 44 45 38 5 11 -127 70 48 -56 70
000080 00 00 00 00 00 00 00 00 0f 1e 7f 19 df f2 1f 1e
       0 0 0 0 0 0 0 0 15 30 127 25 -33 -14 31 30
000090 53 81 19 2a f9 0f 89 02 81 ee 1a 3d b0 b9 9d 41
       83 -127 25 42 -7 15 -119 2 -127 -18 26 61 -80 -71 -99 65
0000a0 1d 1e ce 7f da 8b 08 3f 3d 19 7f 06 f2 f2 41 11
       29 30 -50 127 -38 -117 8 63 61 25 127 6 -14 -14 65 17
0000b0 b9 f7 81 06 ff 09 9c 05 b2 7f f0 ed 06 f0 6c c5
       -71 -9 -127 6 -1 9 -100 5 -78 127 -16 -19 6 -16 108 -59
0000c0 07 c9 cb 59 fa c4 5e 7f 0d 2f 22 29 7f 74 b1 cc
       7 -55 -53 89 -6 -60 94 127 13 47 34 41 127 116 -79 -52
0000d0 b1 ea 81 fd 08 11 9a 04 01 e4 e6 fe df 7f 40 3b
       -79 -22 -127 -3 8 17 -102 4 1 -28 -26 -2 -33 127 64 59
0000e0 fe ed f2 25 0a 7f 3a 45 52 26 7f f8 ed f2 4b f6
       -2 -19 -14 37 10 127 58 69 82 38 127 -8 -19 -14 75 -10
0000f0 ac 7f e8 e4 0d f4 6d d1 d2 a5 e9 07 2a bb 7f 63
       -84 127 -24 -28 13 -12 109 -47 -46 -91 -23 7 42 -69 127 99

model_1/expanded_conv_project/Conv2D i1 [8, 1, 1, 16]
000000 00 ec fe fa 7f 01 ff 00 fe 85 a4 fd 00 7a 00 00
       0 -20 -2 -6 127 1 -1 0 -2 -123 -92 -3 0 122 0 0
000010 00 dc fd 58 4a 10 15 07 fd fc 7f d4 00 1d f4 00
       0 -36 -3 88 74 16 21 7 -3 -4 127 -44 0 29 -12 0
000020 00 02 04 f4 c4 06 09 02 02 01 ef 04 00 7f f4 00
       0 2 4 -12 -60 6 9 2 2 1 -17 4 0 127 -12 0
000030 00 f8 e4 81 50 17 43 11 fc 3d fe 27 00 fd 18 00
       0 -8 -28 -127 80 23 67 17 -4 61 -2 39 0 -3 24 0
000040 00 34 ec 23 c4 1f 7f 08 03 c0 14 f7 00 f8 0c 00
       0 52 -20 35 -60 31 127 8 3 -64 20 -9 0 -8 12 0
000050 00 f3 f4 02 e7 e8 f6 0f 00 09 f8 cf 00 fb 7f 00
       0 -13 -12 2 -25 -24 -10 15 0 9 -8 -49 0 -5 127 0
000060 00 12 fb 03 2b ea ef f7 02 88 74 43 00 7f 43 00
       0 18 -5 3 43 -22 -17 -9 2 -120 116 67 0 127 67 0
000070 00 0b e8 7f 04 fc 11 07 fd 45 cb 4e 00 f9 33 00
       0 11 -24 127 4 -4 17 7 -3 69 -53 78 0 -7 51 0

model_1/expanded_conv_depthwise_BN/FusedBatchNormV3;model_1/expanded_conv_depthwise/depthwise;model_1/block_5_project/Conv2D i1 [1, 3, 3, 16]
000000 94 13 ae 81 27 bd 50 b4 a7 fd f8 1d 81 05 36 b7
       -108 19 -82 -127 39 -67 80 -76 -89 -3 -8 29 -127 5 54 -73
000010 33 19 81 7f 7f 81 7f 81 ac 7f 81 33 97 05 7f e7
       51 25 -127 127 127 -127 127 -127 -84 127 -127 51 -105 5 127 -25
000020 18 e8 5b fe b8 42 a2 4d a2 e5 03 f0 3d 01 9b e3
       24 -24 91 -2 -72 66 -94 77 -94 -27 3 -16 61 1 -101 -29
000030 81 7f ea 0d d5 0f e3 0e e5 00 03 92 cf 08 e2 f2
       -127 127 -22 13 -43 15 -29 14 -27 0 3 -110 -49 8 -30 -14
000040 b2 d7 c7 f1 f9 e6 08 e4 94 a7 15 f4 98 81 01 17
       -78 -41 -57 -15 -7 -26 8 -28 -108 -89 21 -12 -104 -127 1 23
000050 0e 01 41 02 03 21 e7 21 81 06 fe 01 eb 0c fc 2b
       14 1 65 2 3 33 -25 33 -127 6 -2 1 -21 12 -4 43
000060 8d b8 46 02 fa 26 d9 34 b2 00 00 05 28 02 e5 17
       -115 -72 70 2 -6 38 -39 52 -78 0 0 5 40 2 -27 23
000070 17 fc 20 fe e5 27 de 15 81 f3 00 55 c6 00 e4 91
       23 -4 32 -2 -27 39 -34 21 -127 -13 0 85 -58 0 -28 -111
000080 15 f9 13 00 04 0e 09 16 8b 04 ff 81 6b 03 11 81
       21 -7 19 0 4 14 9 22 -117 4 -1 -127 107 3 17 -127

model_1/Conv1/Conv2D i1 [16, 3, 3, 3]
000000 00 00 00 00 00 00 00 00 00 00 00 00 00 00 00 00
       0 0 0 0 0 0 0 0 0 0 0 0 0 0 0 0
000010 00 00 00 00 00 00 00 00 00 00 00 28 fa 13 f5 e5
       0 0 0 0 0 0 0 0 0 0 0 40 -6 19 -11 -27
000020 05 81 8c c0 fe fb f9 e3 01 f7 fe e8 08 f8 12 fb
       5 -127 -116 -64 -2 -5 -7 -29 1 -9 -2 -24 8 -8 18 -5
000030 f7 0b fd 24 f8 10 1d fe ef 38 70 f7 29 dd ff 05
       -9 11 -3 36 -8 16 29 -2 -17 56 112 -9 41 -35 -1 5
000040 0f f4 35 7f dc 15 00 f2 28 bd 09 3e d5 e3 1f ce
       15 -12 53 127 -36 21 0 -14 40 -67 9 62 -43 -29 31 -50
000050 07 06 22 fe 24 5d 08 07 06 f6 1a 25 00 4d 7f 10
       7 6 34 -2 36 93 8 7 6 -10 26 37 0 77 127 16
000060 fb ee fd 0e fd fc 23 16 00 09 01 03 30 4e f1 18
       -5 -18 -3 14 -3 -4 35 22 0 9 1 3 48 78 -15 24
000070 58 f6 fa 0f 0c 38 60 26 28 7f 18 23 35 f5 44 4e
       88 -10 -6 15 12 56 96 38 40 127 24 35 53 -11 68 78
000080 1e 33 75 08 e9 0f 16 03 fb 86 f3 fc 95 f6 19 df
       30 51 117 8 -23 15 22 3 -5 -122 -13 -4 -107 -10 25 -33
000090 ff cc 81 f9 cf 8c fb 0a e1 f5 ff ed fa f9 f2 fd
       -1 -52 -127 -7 -49 -116 -5 10 -31 -11 -1 -19 -6 -7 -14 -3
0000a0 0a ec 17 c3 25 2d aa 29 09 ed 0a 21 a0 3e 3a 81
       10 -20 23 -61 37 45 -86 41 9 -19 10 33 -96 62 58 -127
0000b0 49 05 e5 13 12 dd 0f 0a d5 1d f2 0a 04 df 0e 05
       73 5 -27 19 18 -35 15 10 -43 29 -14 10 4 -33 14 5
0000c0 93 d8 02 e6 15 00 f1 f5 02 81 a3 fa f7 f9 03 e6
       -109 -40 2 -26 21 0 -15 -11 2 -127 -93 -6 -9 -7 3 -26
0000d0 1d f8 f1 09 01 e7 16 fb 8c 95 9e 87 93 9b 90 9d
       29 -8 -15 9 1 -25 22 -5 -116 -107 -98 -121 -109 -101 -112 -99
0000e0 a3 88 8e 96 81 8a 91 8d 98 9c a4 a8 ae 9f a7 ab
       -93 -120 -114 -106 -127 -118 -111 -115 -104 -100 -92 -88 -82 -97 -89 -85
0000f0 ad b7 ba ea 09 0d f2 06 05 00 05 f3 52 6d f6 40
       -83 -73 -70 -22 9 13 -14 6 5 0 5 -13 82 109 -10 64
